lightning_logs/version_3/checkpoints/epoch=29-step=1110.ckpt (torch, 364751 bytes, 33 tensors)

cnn.weight f4 [32, 15, 3]
0	0xbe0f85be	-0.14015862
1	0x3dd5cf4f	0.104399316
2	0xbe1d1c7d	-0.15342899
3	0x3ac3b562	0.0014931376
4	0xbc6d23c5	-0.01447386
5	0xbe031cfc	-0.12804025
6	0x3c09cc8a	0.008410582
7	0xbdddc8c0	-0.10829306
8	0xbd5ddef5	-0.054167707
9	0x3e0ecfd1	0.13946463
10	0x3c51b9a6	0.01280061
11	0x3d674425	0.056461472
12	0xbdba7623	-0.09104564
13	0x3d723a02	0.05913735
14	0x3e0514e5	0.12996252
15	0xbba12789	-0.004918043
16	0xbd8f29c5	-0.06990389
17	0x3d89df4e	0.06732045
18	0x3d590911	0.052987162
19	0xbe16fb95	-0.14744408
20	0xbd930d47	-0.07180267
21	0xbd04e31e	-0.03244316
22	0xbda6393f	-0.081163876
23	0xbe116c2c	-0.1420142
24	0x3c2cface	0.010557843
25	0xbd6db0c1	-0.058029894
26	0x3cca1654	0.02466885
27	0xbd2dbe58	-0.042417854
28	0x3deef128	0.11667091
29	0xbc86d564	-0.016459174
30	0x3d0acd23	0.03388704
31	0xbdee751e	-0.11643432
32	0x3b22fcc6	0.0024869903
33	0x3c90bf75	0.017669419
34	0xbd3be17f	-0.045869347
35	0x3e0031f8	0.12519062
36	0x3dd45598	0.10367888
37	0xbb9e8815	-0.0048379996
38	0xbdc11448	-0.094276965
39	0x3d9e27ff	0.077224724
40	0xbdd55c92	-0.10418047
41	0x3df6ba90	0.12047303
42	0x3d65fb8c	0.056148097
43	0xbe11a1e8	-0.14221919
44	0x3d004dc3	0.03132416
45	0x3c1da834	0.009622622
46	0xbe1dcafb	-0.15409462
47	0xbe145e9f	-0.1448922
48	0xbde3c1bb	-0.111209355
49	0x3c966537	0.01835881
50	0xbdcf98a3	-0.10136535
51	0x3e11f441	0.14253332
52	0x3da99c1c	0.082817286
53	0x3e020781	0.12698175
54	0x3d802245	0.062565364
55	0x3d2c645c	0.042087898
56	0xbc5b1b72	-0.013373243
57	0xbbf004bd	-0.0073247836
58	0xbdb2be56	-0.0872771
59	0x3dacdbcd	0.08440361
60	0x3d86609c	0.065613955
61	0xbd629eda	-0.055327274
62	0x3dba259a	0.09089203
63	0x3d0af079	0.03392074
64	0x3dc6d07f	0.09707736
65	0xbd71ff2a	-0.059081234
66	0xbdc7f7c8	-0.097640574
67	0x3dbfb5f4	0.09360877
68	0x3c745180	0.014912009
69	0xbdfaab9f	-0.122397654
70	0x3c414a28	0.011797465
71	0xbc844cba	-0.016149867
72	0xbcaf5e94	-0.021407403
73	0xbd2534ed	-0.040333677
74	0xbe0552b4	-0.1301983
75	0xbd875eb6	-0.066098616
76	0xbd67ecae	-0.0566222
77	0x3d006e86	0.031355403
78	0xbd86153c	-0.06547019
79	0x3daaf58f	0.08347618
80	0xbdfc63d2	-0.12323727
81	0xbd8f9125	-0.07010106
82	0x3d13507a	0.03596542
83	0x3dd479f1	0.10374821
84	0xbdc357bc	-0.095382184
85	0x3df3822f	0.11890065
86	0x3e0ccd29	0.13750137
87	0x3d745feb	0.059661787
88	0x3d977d89	0.07396991
89	0xbd195dcd	-0.03744297
90	0x3bda04be	0.0066533973
91	0x3dfd0d83	0.12356093
92	0x3b8b6853	0.00425438
93	0xbcd0e64f	-0.025500445
94	0x3dbb9cbf	0.09160756
95	0x3c4a93ba	0.012364322
96	0x3c91f31d	0.01781612
97	0x3e175184	0.1477719
98	0xbd74d179	-0.05977008
99	0x3d8aa772	0.06770219
100	0x3dce82da	0.10083552
101	0x3c0475cf	0.008084728
102	0xbcc4d9c6	-0.024029624
103	0x3da69572	0.08133973
104	0x3d63c6ce	0.055609517
105	0x3ca7ec27	0.020498348
106	0x3ce0d206	0.027443897
107	0x3dca67c0	0.0988307
108	0x3dda57fa	0.106613114
109	0xbd67af9e	-0.056563966
110	0x3ca58f30	0.020209879
111	0x3dfe607b	0.12420746
112	0x3d8fd925	0.07023839
113	0xbdbcb713	-0.09214606
114	0x3dfc2d96	0.12313382
115	0xbdecb339	-0.115576215
116	0xbd6d9f7f	-0.058013435
117	0x3c9ce919	0.019154118
118	0xbd79377c	-0.06084393
119	0x3d68734c	0.05675058
120	0x3c3295ea	0.0109
121	0x3e0ca823	0.13736014
122	0xbca546e3	-0.020175403
123	0x3de70bfd	0.112815835
124	0x3ca39e9b	0.01997309
125	0xbe03f0ac	-0.12884778
126	0x3d956db4	0.07296315
127	0x3df1f5fc	0.11814496
128	0xbe1706f4	-0.14748746
129	0x3cab5eb6	0.020919185
130	0xbd43a577	-0.04776522
131	0x3db11cb5	0.086480536
132	0x3d7689df	0.060190078
133	0x3d8b528a	0.068028525
134	0x3df96703	0.12177851
135	0x3de974bc	0.113992184
136	0xbdd13250	-0.102146745
137	0x3db8fe84	0.0903292
138	0xbd390d81	-0.045178894
139	0x3e053fa6	0.13012561
140	0xbdfed2f0	-0.12442577
141	0xbc5887ef	-0.013216003
142	0xbdd3e59a	-0.103465274
143	0xbe21a0ac	-0.15783948
144	0xbe1fb138	-0.15594947
145	0xbde0b539	-0.109720655
146	0xbd296808	-0.041358978
147	0x3daabe95	0.08337132
148	0xbe26e27b	-0.16297333
149	0x3d726a6b	0.05918352
150	0x3db14dd0	0.0865742
151	0xbd4aff14	-0.049559668
152	0x3c22e42d	0.009942097
153	0xbd77c5e9	-0.060491476
154	0xbd297ba6	-0.041377686
155	0xbd8ec390	-0.06970894
156	0x3db77f9a	0.08959885
157	0xbdb3674e	-0.08759938
158	0x3de0d15c	0.10977432
159	0x3d4a5ed2	0.049406834
160	0x3df9c5a1	0.12195898
161	0x3b83e99f	0.0040256525
162	0x3dddc30c	0.10828218
163	0xbdea1b73	-0.11431017
164	0xbcb81050	-0.022468716
165	0xbd016b23	-0.031596314
166	0xbda3139b	-0.07962724
167	0xbdd44d05	-0.10366253
168	0x3df455a6	0.11930399
169	0xbb41119e	-0.0029459964
170	0x3d8e9f7d	0.06964014
171	0x3c5d9d27	0.013526238
172	0x3d8124d6	0.06305854
173	0xbe12c288	-0.1433202
174	0xbcbcf4cf	-0.023065953
175	0x3d766e4e	0.06016379
176	0xbc8a4c29	-0.01688202
177	0xbd97eca9	-0.07418186
178	0xbbe26214	-0.0069086645
179	0xbe0cade4	-0.13738209
180	0x3d809b66	0.0627964
181	0x3cfeb838	0.031093702
182	0xbde4b241	-0.11166812
183	0x3daf72a0	0.08566785
184	0xbe00b7e4	-0.12570149
185	0x3da1654d	0.0788065
186	0xbdd124d7	-0.10212105
187	0xbe0cd7d6	-0.1375421
188	0x3cda02a7	0.026612593
189	0xbc6a41f9	-0.014297956
190	0x3df0846c	0.117440075
191	0xbd84d6b0	-0.06486261
192	0x3e14e0ac	0.1453883
193	0x3d219e20	0.03945744
194	0x3ca7bf7f	0.020477055
195	0x3ce32521	0.027727665
196	0x3d26b9e2	0.040704615
197	0x3da0cf67	0.07852059
198	0x3c79bad1	0.015242294
199	0x3e0a3208	0.13495648
200	0xbdfb4484	-0.12268928
201	0xbd802d6d	-0.06258664
202	0xbd495a81	-0.049158577
203	0xbdcee551	-0.101023324
204	0xbddb5d69	-0.10711176
205	0xbdbabf30	-0.09118497
206	0x3cffc82a	0.031223375
207	0xbd503585	-0.05083229
208	0xbdf91ee9	-0.12164099
209	0x3d94e20e	0.07269679
210	0x3e076fb0	0.13226199
211	0x3d58b35d	0.05290543
212	0xbdd1a374	-0.10236254
213	0x3e1a1efb	0.1505088
214	0x3c53871c	0.012910631
215	0xbb222b84	-0.0024745176
216	0x3c900b3b	0.01758348
217	0x3e090f46	0.13384733
218	0xbd90a381	-0.07062436
219	0xbdbd72fd	-0.09250448
220	0x3d70e50c	0.058812186
221	0xbde103ad	-0.10987029
222	0xbd502bec	-0.050823137
223	0xbc5c1d21	-0.013434679
224	0x3e012f5c	0.12615722
225	0xbd5e3946	-0.05425384
226	0xbc615a35	-0.013754417
227	0xbe10a634	-0.14125901
228	0x3da93317	0.08261698
229	0xbdfe60c3	-0.124207996
230	0xba533376	-0.00080566795
231	0x3cf677b5	0.030086378
232	0xbd3cf1cf	-0.046129044
233	0x3d0c4623	0.034246575
234	0x3c913e63	0.017729944
235	0xbdc685e7	-0.096935086
236	0xbe0336b3	-0.12813835
237	0x3e09408e	0.13403532
238	0xbe11f990	-0.14255357
239	0xbd930d8e	-0.0718032
240	0x3d99f9ed	0.07518373
241	0xbce3c269	-0.027802663
242	0xbcf14e85	-0.029456386
243	0x3c780d8d	0.0151399495
244	0xbcd58a11	-0.026066812
245	0x3d7eb4f6	0.062184297
246	0xbd80d47d	-0.06290529
247	0x3d13ab8a	0.036052264
248	0xbe10365b	-0.14083235
249	0xbcb9c507	-0.022676958
250	0x3de5d7ce	0.11222802
251	0x3d90ca88	0.0706988
252	0xba8a0f2d	-0.0010533087
253	0x3cc4831c	0.0239883
254	0x3e08a005	0.13342293
255	0xbcfe92b0	-0.031075805

cnn.bias f4 [32]
0	0x3d02ebb0	0.03196305
1	0xbd3ef8ce	-0.046623997
2	0x3db4047e	0.08789919
3	0x3dc3e9a7	0.0956605
4	0x3ca30885	0.019901523
5	0x3c22151a	0.009892726
6	0x3de2fc59	0.11083288
7	0xbd25c29a	-0.04046879
8	0xbc5f9630	-0.013646647
9	0x3bf11fc0	0.007358521
10	0x3d9e16a6	0.077191636
11	0xbd73176a	-0.0593485
12	0x3d970da6	0.0737565
13	0xbcf0ada9	-0.029379683
14	0x3e1589ac	0.14603299
15	0x3df1f6cd	0.11814652
16	0x3c1465c8	0.00905747
17	0x3cf6dc3c	0.030134313
18	0xbe0db76d	-0.13839503
19	0x3dad9446	0.084755465
20	0xbcb3b567	-0.021937085
21	0xbd2bbb9d	-0.04192697
22	0x3d822aee	0.063558444
23	0xbd8160fe	-0.06317328
24	0xbaf13580	-0.0018402785
25	0x3e12e229	0.14344086
26	0x3d828478	0.06372923
27	0xbdfd8680	-0.123791695
28	0x3aba8a1d	0.0014231835
29	0xbc86e995	-0.016468802
30	0xbe071bad	-0.13194151
31	0x3cffd7ff	0.031230925

lstm.weight_ih_l0 f4 [256, 32]
0	0x3dadbd88	0.08483416
1	0xbd9cad46	-0.07650237
2	0x3d1a5184	0.037675396
3	0x3ca4dd70	0.02012512
4	0xbd999fdc	-0.07501194
5	0xbd33fb20	-0.043940663
6	0x3dbf573c	0.093428105
7	0xbdfdcbe2	-0.12392403
8	0xbdaf4ba8	-0.08559352
9	0x3dfb5d34	0.122736365
10	0x3db91378	0.090369165
11	0x3de94f32	0.113920584
12	0xbd5efc68	-0.054439932
13	0x3ce674e0	0.028131902
14	0x3d78a9c0	0.06070876
15	0xbde2881c	-0.11061117
16	0x3d20ede0	0.039289355
17	0x3dc172cc	0.09445724
18	0x3ad6bf00	0.0016383827
19	0x3dcb5bfe	0.099296555
20	0xbbfffaa0	-0.0078118593
21	0x3cd4eb60	0.025991142
22	0xbc1a0640	-0.009400904
23	0xbdaf2928	-0.08552772
24	0x3c36e6d0	0.011163428
25	0x3dd1b8dc	0.10240337
26	0x3d67a378	0.05655238
27	0x3da09b02	0.078420654
28	0x3c875c28	0.016523436
29	0xbdb6d5f0	-0.08927524
30	0xbb05bc80	-0.0020406544
31	0xbded0e5a	-0.11575003
32	0x3ddc2bde	0.107505545
33	0xbdd1258e	-0.10212241
34	0x3cfbf808	0.030757919
35	0x3daaab04	0.083334
36	0x3dd8d1ec	0.105869144
37	0x3d1e2ecc	0.038618848
38	0x3cb671b0	0.022271007
39	0xbd3d3330	-0.046191394
40	0x3df3baba	0.1190085
41	0x3d6ee11c	0.05832015
42	0x3ded5a4e	0.1158949
43	0x3d0f3350	0.034961045
44	0xbda6adb4	-0.081386
45	0x3d8ec154	0.06970468
46	0xbd88de16	-0.066829845
47	0xbdd316e8	-0.103071034
48	0x3d904cce	0.07045899
49	0xbd86fb30	-0.06590879
50	0x3d9b01de	0.075687155
51	0x3dc72f48	0.09725815
52	0x3d89326c	0.0669907
53	0x3c9facf8	0.019491658
54	0xbcf47398	-0.029840276
55	0x3c953a00	0.018216133
56	0x3db14734	0.08656159
57	0xbdc259d2	-0.09489788
58	0x3d2bddc8	0.041959554
59	0x3d231dc0	0.039823294
60	0x3c5d8150	0.0135196
61	0xbd604ecc	-0.054762647
62	0xbdd379a8	-0.103259385
63	0x389c3800	7.4490905e-05
64	0xbdb3444c	-0.08753261
65	0x3ce03610	0.027369529
66	0xbd8e3982	-0.069445625
67	0x3d143580	0.036183834
68	0x3dcdeae4	0.100545675
69	0x3b92f5c0	0.004484862
70	0xbd8917d8	-0.06694001
71	0xbbd0c0c0	-0.006370634
72	0x3df6113e	0.120150074
73	0xbca668c8	-0.020313635
74	0x3c836b40	0.016042352
75	0xbc48cd40	-0.012255967
76	0x3d8b6c56	0.06807773
77	0xbb3cb600	-0.0028795004
78	0xbc0aaa10	-0.008463398
79	0x3d6422cc	0.055697247
80	0xbc911148	-0.017708436
81	0x3b2f6280	0.0026761591
82	0x3b3f9900	0.0029235482
83	0xbd262638	-0.040563792
84	0x3c5a8d40	0.013339341
85	0xbdd39bde	-0.10332464
86	0xbd4529d8	-0.04813561
87	0xbd151f98	-0.036407083
88	0x3d946754	0.07246271
89	0x3c7ab650	0.015302256
90	0xbdcca480	-0.099923134
91	0x3b8f36a0	0.0043705255
92	0xbd3abb90	-0.04558903
93	0xbda02ad8	-0.07820672
94	0xbda171c8	-0.0788303
95	0xbdd43af0	-0.10362804
96	0x3c8005e0	0.015627801
97	0x3dbeed7a	0.09322639
98	0x3d98498c	0.07435903
99	0xbdd8d736	-0.10587923
100	0x3de743bc	0.11292216
101	0x3d8434b4	0.06455365
102	0xbde3900a	-0.11111458
103	0x3d8a57ec	0.06755051
104	0x3dba4fd2	0.09097256
105	0xbddd8642	-0.10816623
106	0x3c949020	0.01813513
107	0xbc238a00	-0.009981632
108	0x3ddd0c1c	0.10793325
109	0x3d60f6e0	0.05492294
110	0x3d15d810	0.036583006
111	0xbcf12368	-0.029435828
112	0x3ddb71ca	0.10715063
113	0x3d80d6c8	0.06290966
114	0xbd7202c0	-0.059084654
115	0xbdb7d71e	-0.08976577
116	0xbccd4fe8	-0.025062516
117	0xbdcfa692	-0.10139193
118	0x3da66da8	0.08126384
119	0x3d9055ec	0.07047638
120	0xbcbbfef8	-0.022948727
121	0xbacf6c80	-0.0015825182
122	0x3d31a710	0.043372214
123	0xbdcca27a	-0.099919274
124	0xbd1a4820	-0.03766644
125	0x3de40b2a	0.11134942
126	0x3dc7a8fc	0.09749028
127	0x3d20a234	0.03921719
128	0xbda43cf4	-0.080194384
129	0x3d829893	0.063767575
130	0x3c332372	0.010933744
131	0x3bc4a207	0.0060007605
132	0xbd44fe14	-0.04809387
133	0x3d9f7738	0.07786411
134	0xbd39549c	-0.045246705
135	0xbde9ef69	-0.11422617
136	0xbd590228	-0.052980572
137	0xbd350a8c	-0.04419951
138	0xbc9fcfa8	-0.019508198
139	0xbd0d91bd	-0.034562815
140	0xbd59e542	-0.053197153
141	0x3de567ef	0.112014644
142	0x3db55d13	0.08855643
143	0x3dcf8d98	0.10134429
144	0xbd9d4886	-0.076798484
145	0xbd214000	-0.039367676
146	0xbde9e2a4	-0.114201814
147	0x3d8bdbe4	0.0682905
148	0x3d559e9f	0.052153226
149	0xbdbb624a	-0.091496065
150	0xbd0c4664	-0.034246817
151	0xbdcfe13c	-0.10150382
152	0x3a6da100	0.00090648234
153	0x3d9c0b7e	0.076193795
154	0x3da1be86	0.078976676
155	0x3cd20a88	0.025639787
156	0x3d03d55f	0.03218591
157	0x3d64ed9e	0.055890672
158	0x3d4fdb5f	0.050746318
159	0xbd997473	-0.07492914
160	0xbdc0e558	-0.09418744
161	0x3cdba338	0.026811227
162	0xbcd7b540	-0.026331544
163	0xbd1f0a3c	-0.03882812
164	0x3da507a0	0.08058095
165	0x3c2d3720	0.010572225
166	0x3deb518a	0.11490162
167	0xbdbd17e6	-0.09233074
168	0x3cf47f20	0.029845774
169	0x3d8a4d4e	0.06753026
170	0x3de086ce	0.10963212
171	0xbde5e55e	-0.11225389
172	0x3db7943a	0.08963819
173	0x3ce18e40	0.02753365
174	0xbdd9f3e6	-0.10642223
175	0xbd958a26	-0.0730174
176	0xbcca9268	-0.024728015
177	0x3da8a2da	0.082341865
178	0x3d3ce640	0.04611802
179	0x3cf451e8	0.029824212
180	0xbcdfb0f8	-0.027306065
181	0x3d42a1b4	0.047517493
182	0xbd86480c	-0.065567106
183	0xbdcc8cd6	-0.099878
184	0xbcecb660	-0.028895557
185	0x3c6209f0	0.013796315
186	0xbbc196a0	-0.0059078485
187	0x3d26a0d8	0.040680736
188	0x3dd255f0	0.102702975
189	0x3d4a9f3c	0.049468264
190	0xbd8cce02	-0.0687523
191	0x3df7142a	0.12064393
192	0x3d916a53	0.07100358
193	0xbdf8e2d5	-0.1215264
194	0x3d3d9d0c	0.04629235
195	0xbd226715	-0.039649088
196	0xbde6a7ab	-0.11262449
197	0x3aee5872	0.0018184318
198	0xbd7edbe4	-0.062221423
199	0xbdd5c0bc	-0.10437152
200	0x3d927680	0.07151508
201	0x3ca48740	0.020084023
202	0x3db7354e	0.08945714
203	0xbddbfa5f	-0.10741114
204	0x3dd6bbb8	0.10485023
205	0xbd4920a8	-0.04910341
206	0x3da5e5a2	0.081004396
207	0x3d62428c	0.055239245
208	0x3c21519a	0.0098461155
209	0x3dd496a2	0.103802934
210	0xbdccc6b4	-0.09998837
211	0x3dd5fe45	0.10448889
212	0xbde366a4	-0.111035615
213	0x3deccb1c	0.115621775
214	0x3ace5180	0.0015740842
215	0x3df0e1fe	0.117618546
216	0xbddc177e	-0.10746668
217	0xbdf6280a	-0.120193556
218	0xbddc600c	-0.10760507
219	0x3c7abac0	0.015303314
220	0xbdf69e95	-0.12041966
221	0xbd03703e	-0.032089464
222	0x3d8ee293	0.06976809
223	0xbda861de	-0.08221792
224	0x3ba626c0	0.0050705373
225	0xbd076718	-0.033057302
226	0xbd73555c	-0.059407577
227	0xbd5d6bfc	-0.05405806
228	0xbde913a6	-0.11380701
229	0x3d0d3804	0.03447725
230	0x3da6bb62	0.08141209
231	0xbd651e00	-0.055936813
232	0xbd8fa9e8	-0.07014829
233	0x3bd128a0	0.0063830167
234	0xbc58ceb0	-0.013232872
235	0x3dfc7020	0.12326074
236	0x3de9b574	0.114115626
237	0x3d8c77e0	0.06858802
238	0xbcb2f558	-0.021845505
239	0xbd24b058	-0.040207237
240	0x3c899a28	0.01679714
241	0xbdf4db1a	-0.11955853
242	0x3c925810	0.017864257
243	0xbcc1a498	-0.023638055
244	0xbdeeb610	-0.116558194
245	0x3d3c0b14	0.045909002
246	0xbda3c960	-0.079973936
247	0xbc93e8f0	-0.01805541
248	0xbd201d40	-0.039090395
249	0xbddf321c	-0.108982295
250	0x3ba67620	0.0050799996
251	0x3d8f72c8	0.07004315
252	0xbdbbdc24	-0.09172848
253	0xbc48fde0	-0.01226756
254	0x3d08d658	0.03340754
255	0xbde15072	-0.11001672

lstm.weight_hh_l0 f4 [256, 64]
0	0x3b735f00	0.0037135482
1	0xbd784794	-0.060615137
2	0x3d5c9230	0.053850353
3	0xbdf2c0c8	-0.11853176
4	0x3dc0abfa	0.09407802
5	0x3d0032b0	0.03129834
6	0xbdf947da	-0.12171908
7	0xbda8e08e	-0.082459554
8	0xbdda1060	-0.106476545
9	0xbdcda318	-0.10040873
10	0xbd86bc14	-0.06578842
11	0x3b4d8d40	0.003136471
12	0x3cb2c710	0.021823436
13	0xbd9f5f28	-0.077818215
14	0x3d89e5cc	0.067332834
15	0x3c2e53f0	0.010640129
16	0x3d0bb4cc	0.03410797
17	0x3dcb9dc8	0.09942204
18	0x3d4e8ca8	0.05042711
19	0x3d94b8ac	0.07261786
20	0xbbff9de0	-0.0078008026
21	0x3dac01c6	0.08398776
22	0x3daa26a6	0.08308153
23	0x3cf0e9a8	0.029408291
24	0x3dd08676	0.101818964
25	0xbdd07d0c	-0.10180101
26	0x3daa6c8c	0.08321485
27	0xbd83223a	-0.064030126
28	0xbdd7b02e	-0.105316505
29	0x3de57300	0.11203575
30	0xbd319e40	-0.04336381
31	0xbd1f4b70	-0.038890302
32	0x3d8a5a60	0.06755519
33	0x3da8d244	0.0824323
34	0x3dd4c8d0	0.103898644
35	0x3df4af84	0.119475394
36	0xbd237b78	-0.03991267
37	0xbd46c890	-0.048531115
38	0xbb9c3f00	-0.0047682524
39	0x3d4faa90	0.05069977
40	0x3cb801d8	0.022461817
41	0x3a153700	0.00056920946
42	0x3dace0d2	0.084413186
43	0x3d3929b8	0.0452058
44	0x3c95c2c0	0.01828134
45	0xbc3f2f50	-0.011668995
46	0x3d8295ca	0.06376226
47	0x3df2fe8c	0.11864957
48	0x3def1c8c	0.11675367
49	0x3d33b1d8	0.043870777
50	0x3d0ace0c	0.033887908
51	0x3d45a6f0	0.048254907
52	0xbdced4a8	-0.10099155
53	0x3cea9f70	0.028640479
54	0xbd7c8a88	-0.06165555
55	0xbd16213c	-0.03665279
56	0x3d23c4c4	0.039982572
57	0xbd2ed668	-0.042684942
58	0xbdcb7e6e	-0.09936224
59	0x3ca0dd78	0.019636855
60	0xbbc97d40	-0.006148964
61	0x3de3d8b2	0.11125316
62	0x3d728758	0.059211105
63	0xbc003a40	-0.007826388
64	0x3d813e0e	0.06310664
65	0xbd70d0b8	-0.0587928
66	0x3de31a38	0.11088985
67	0x3dcedd54	0.10100809
68	0x3d9d5268	0.07681733
69	0xbd51c1ec	-0.05121033
70	0x3c332dc0	0.010936201
71	0xbbeabd20	-0.0071636587
72	0xbdb3dd12	-0.087824
73	0xbd82226e	-0.06354223
74	0xbd9f2c1c	-0.07772085
75	0xbdd82b0a	-0.10555084
76	0x3db7a11a	0.089662746
77	0x3d921866	0.0713356
78	0xbc2d3bb0	-0.010573313
79	0xbc736fd0	-0.014858201
80	0xbdd0128e	-0.10159789
81	0xbd2da234	-0.042391017
82	0x3dba1d9c	0.09087679
83	0xbc782dc0	-0.015147626
84	0xbdbe51a2	-0.09292914
85	0xb9cd0e00	-0.00039111078
86	0x3b230980	0.0024877489
87	0x3cfb0ad8	0.03064482
88	0x3dbc0c82	0.09182073
89	0xbd4747d0	-0.04865247
90	0xbd54c4fc	-0.05194567
91	0xbd93598a	-0.071948126
92	0x3dccd3f2	0.10001363
93	0x3da5f2fa	0.08102985
94	0xbcae72c0	-0.021294951
95	0x3d515c7c	0.05111359
96	0x3da16b66	0.07881813
97	0xbcee0be0	-0.029058397
98	0xbc2b13e0	-0.01044175
99	0x3cdd0a08	0.026982322
100	0xbdf52366	-0.11969642
101	0xbcf6b838	-0.03011714
102	0x3ceeb738	0.0291401
103	0xbcf5fa68	-0.03002663
104	0xbd0ec20c	-0.034853026
105	0xbdc6982a	-0.09696992
106	0xbce8ca80	-0.028416872
107	0xbdba3fc8	-0.090941966
108	0xbdc92422	-0.09821345
109	0x3dd57d4a	0.104242876
110	0x3cd1ea28	0.02562435
111	0x3d9ecfe2	0.07754494
112	0xbd05747c	-0.03258179
113	0xbdb4e2f2	-0.08832349
114	0x3dcbb174	0.09945956
115	0x3d93806c	0.07202229
116	0xbd03524c	-0.032060906
117	0xbcc52ff8	-0.024070725
118	0xbda734ce	-0.081643686
119	0xbc220c20	-0.009890586
120	0x3cfe4080	0.031036615
121	0xbd794718	-0.060858816
122	0x3de3a0ae	0.111146316
123	0xbd5ecc88	-0.054394275
124	0xbd1dc3c4	-0.038516775
125	0x3c034390	0.008011714
126	0xbd65d504	-0.05611135
127	0xbca48e78	-0.020087466
128	0xbcd3e960	-0.025868118
129	0x3ced2728	0.028949335
130	0xbc4db670	-0.0125557035
131	0x3db14a20	0.08656716
132	0x3d4e7dc4	0.05041291
133	0x3d74d0b4	0.059769347
134	0x3ddf7ed2	0.10912861
135	0xbdfd3904	-0.123643905
136	0xbd9d6c7a	-0.07686706
137	0xbdc3f59e	-0.09568332
138	0x3d92d354	0.07169214
139	0xbc903c58	-0.0176069
140	0x3db8f55e	0.09031175
141	0xbd38b00c	-0.045089766
142	0x3d9d9486	0.07694344
143	0x3d9261f4	0.07147589
144	0xbdc36cdc	-0.09542248
145	0xbd61246c	-0.054966375
146	0x3d5fae60	0.054609656
147	0x3df1718e	0.11789237
148	0x3d069244	0.032854334
149	0xbdc9179c	-0.09818956
150	0x3dd93722	0.10606219
151	0x3d74b5bc	0.059743628
152	0xbd54851c	-0.051884755
153	0xbc756c10	-0.014979377
154	0xbcf779d0	-0.030209452
155	0xbdd6b490	-0.10483658
156	0xba8bb800	-0.0010659695
157	0xbdd4978c	-0.10380468
158	0x3c8a3610	0.016871482
159	0x3be3faa0	0.006957367
160	0xbd351dc8	-0.044217855
161	0xbd1c4c88	-0.038158923
162	0x3d8f08c6	0.06984095
163	0x3bcb8320	0.0062106997
164	0x3d94fb5e	0.07274507
165	0x3d774834	0.060371593
166	0xbc507870	-0.012724027
167	0xbd807460	-0.06272197
168	0x3d070420	0.03296292
169	0x3d8b780c	0.068100065
170	0xbd957026	-0.07296781
171	0x3dcf35b4	0.10117665
172	0xbc71b250	-0.014751986
173	0xbd93e294	-0.07220951
174	0x3c7a18b0	0.015264675
175	0xbd96c8e0	-0.073625326
176	0xbda73470	-0.081642985
177	0xbd3f7e54	-0.046751335
178	0x3c48deb0	0.012260124
179	0x3d6b7e1c	0.057493314
180	0x3d7aad68	0.06120053
181	0x3d17c9ec	0.037057802
182	0x3db43d52	0.088007584
183	0xbd8b946a	-0.06815417
184	0x3de8e748	0.113722384
185	0x3dac2f26	0.0840743
186	0xbd818a00	-0.063251495
187	0xbdf207f0	-0.1181792
188	0x3ddfdadc	0.10930416
189	0x3c11f170	0.008907661
190	0xbd5fce10	-0.054639876
191	0x3c4c4a10	0.01246883
192	0xbdeedfba	-0.11663766
193	0x3d9c9806	0.07646184
194	0xbd73f990	-0.059564173
195	0x3d45b158	0.04826483
196	0x3cb90f10	0.02259019
197	0x3d44ae3c	0.048017725
198	0x3d4a3c1c	0.04937373
199	0xbdf3bb4c	-0.119009584
200	0x3d98be4c	0.07458171
201	0x3db10872	0.08644189
202	0xbbe16ea0	-0.0068796426
203	0x3c370ab0	0.011171982
204	0x3cce8818	0.025211379
205	0x3dd2bbdc	0.102897376
206	0x3dfe4030	0.124145865
207	0xbd0f7cec	-0.035031244
208	0x3d979484	0.07401374
209	0x3db5434c	0.088507265
210	0x3dfa88ea	0.122331455
211	0x3ca6d8b8	0.020367011
212	0x3ddbffa8	0.10742122
213	0xbde5aff6	-0.112152025
214	0xbca5dd00	-0.020246983
215	0x3d04c11c	0.032410726
216	0x3cebdd00	0.028791904
217	0xbd8bdca2	-0.06829192
218	0x3c6dbc20	0.0145101845
219	0x3da362f6	0.0797786
220	0xbdc131fe	-0.094333634
221	0x3ca0d128	0.019630983
222	0x3ca49938	0.020092592
223	0xbdaeff92	-0.0854484
224	0x3dbeb4cc	0.09311828
225	0x3d14d198	0.036332697
226	0xbd11dca4	-0.03561081
227	0xbca8ff60	-0.020629585
228	0xbd89231c	-0.0669615
229	0x3dc7b1a2	0.09750678
230	0x3d768488	0.060184985
231	0xbd9d8a6c	-0.076924175
232	0xbdf7706c	-0.1208199
233	0xbdff797c	-0.12474343
234	0xbca17a28	-0.019711569
235	0x3de7292c	0.1128715
236	0xbc0c8400	-0.008576393
237	0x3d8c717c	0.06857583
238	0xbdcd8cd4	-0.100366265
239	0xbd8c5e56	-0.06853931
240	0x3d6a9de8	0.057279497
241	0xbdccabae	-0.09993683
242	0xbd94f446	-0.07273154
243	0x3ce9ddf8	0.028548226
244	0xbcf619f8	-0.03004168
245	0x3d72b3e4	0.05925359
246	0x3d8aa4a0	0.06769681
247	0xbd73bf60	-0.05950868
248	0xbc8e3478	-0.017359003
249	0xbdab7fda	-0.08373995
250	0x3de88810	0.11354077
251	0x3d228ce0	0.03968513
252	0xbd792614	-0.06082733
253	0xbdd9666c	-0.106152385
254	0x3c87bc80	0.016569376
255	0x3ce17268	0.027520373

lstm.bias_ih_l0 f4 [256]
0	0xbc973350	-0.018457085
1	0xbdf4b500	-0.119485855
2	0xbdc56f92	-0.09640421
3	0xbca011b0	-0.019539684
4	0xbdeac56a	-0.11463435
5	0xbb2a7f40	-0.0026015788
6	0xbdd34e2f	-0.10317647
7	0x3d118040	0.0355227
8	0xbd29f940	-0.04149747
9	0xbdb6605c	-0.08905098
10	0xbccbf8a0	-0.024898827
11	0xbdc60fdf	-0.09670996
12	0xbdf6520e	-0.120273694
13	0x3dee6360	0.11640048
14	0xbc47fe90	-0.0122066885
15	0x3d61f3bf	0.055164095
16	0x3deb8604	0.11500171
17	0xbdc6131a	-0.09671612
18	0x3dfe3480	0.12412357
19	0x3db347ea	0.08753951
20	0x3da58550	0.08082068
21	0x3dbed9c4	0.09318879
22	0x3df50bd6	0.11965148
23	0xbd877892	-0.06614794
24	0xbe050f88	-0.12994206
25	0xbd5ff988	-0.05468133
26	0xbd98da20	-0.07463479
27	0xbdad34e2	-0.08457352
28	0x3da5d32a	0.08096917
29	0x3dca2602	0.09870531
30	0x3d887652	0.06663193
31	0xbdebd90e	-0.11516009
32	0xbc52e1a2	-0.012871178
33	0x3d707788	0.058707744
34	0xbda1560c	-0.0787774
35	0x3d8e6548	0.069529116
36	0xbd86ace2	-0.065759435
37	0x3dc4f6a8	0.096173584
38	0xbc517740	-0.012784779
39	0xbd1a9a1c	-0.037744626
40	0x3d92d8ee	0.07170282
41	0xbb2aabc0	-0.0026042312
42	0xbdf97c66	-0.1218193
43	0x3b6addc0	0.003583774
44	0x3db33940	0.08751154
45	0x3db4d8d0	0.08830416
46	0x3cf99a88	0.030469194
47	0xbdc03f4a	-0.093870714
48	0x3de40132	0.111330405
49	0x3b42f70e	0.0029749307
50	0xbdff9cb8	-0.124810636
51	0xbd15289c	-0.03641568
52	0xbb624189	-0.0034523925
53	0x3d212e1c	0.039350614
54	0xbd70cf2c	-0.058791324
55	0xbdd115f2	-0.10209264
56	0xbd90a2f4	-0.07062331
57	0xbcb27179	-0.021782624
58	0x3d93feea	0.072263554
59	0xbdc3d392	-0.09561838
60	0xbd8f8040	-0.070068836
61	0xbd947132	-0.07248153
62	0x3dd93d3a	0.10607381
63	0x3b493241	0.003070012
64	0xbd29e940	-0.04148221
65	0x3dd30bac	0.103049606
66	0xbd53b0f0	-0.051682413
67	0x3d95c8f8	0.07313722
68	0x3de6da9a	0.11272164
69	0xbd2f6be4	-0.042827502
70	0xbc08cad0	-0.0083491355
71	0xbdd72e84	-0.10506919
72	0xbddfb15e	-0.10922502
73	0x3d97bbb1	0.07408846
74	0x3d98c9b8	0.0746035
75	0x3d54fc9f	0.05199873
76	0x3dc0b2ae	0.094090804
77	0xbd4cfd4c	-0.05004625
78	0x3d1df160	0.03856027
79	0x3d88999a	0.06669922
80	0xbdc17036	-0.09445231
81	0xbd0ca6f8	-0.03433892
82	0x3baeb213	0.0053312867
83	0xbbffea60	-0.007809922
84	0x3ceec268	0.029145434
85	0x3c41be44	0.011825148
86	0xbdb5f756	-0.08885066
87	0x3df5d47e	0.1200342
88	0xbda94502	-0.08265115
89	0x3db25690	0.08707917
90	0x3cfdcda0	0.030981839
91	0xbb8ee740	-0.0043610632
92	0x3da322e1	0.07965637
93	0xbddd67f4	-0.10810843
94	0xbdae15f4	-0.08500281
95	0xbdbad6ef	-0.091230266
96	0x3d3666bb	0.044531565
97	0xbdacf2ba	-0.08444734
98	0xbdd58b1a	-0.10426922
99	0x3d894e93	0.0670444
100	0xbd8c387c	-0.06846711
101	0x3dd89826	0.10575895
102	0x3d1d3b20	0.038386464
103	0xbc0f8cc0	-0.008761585
104	0xbdbed803	-0.09318545
105	0x3cbd92a8	0.02314122
106	0xbb0cd340	-0.002148822
107	0x3c8df760	0.017329872
108	0xbc931500	-0.01795435
109	0xbdf00b88	-0.117209494
110	0x3dfc4dac	0.12319502
111	0x3dd106f8	0.10206407
112	0xbd97be54	-0.07409349
113	0x3da69aca	0.081349924
114	0xbbb991a0	-0.005663112
115	0xbde14f48	-0.1100145
116	0xbdfd1342	-0.12357189
117	0x3cfc9058	0.030830547
118	0xbdf12b92	-0.117758885
119	0xbcb55928	-0.02213724
120	0x3d650974	0.05591722
121	0x3bdc44e0	0.0067220777
122	0xbd689269	-0.056780253
123	0xbcd97610	-0.026545554
124	0x3d947f70	0.07250869
125	0xbd76aee9	-0.0602254
126	0xbd8fca94	-0.070210606
127	0x3d2a2cb5	0.041546542
128	0x3cacdc18	0.021101043
129	0xbd2ee93b	-0.042702895
130	0xbc8a7510	-0.016901523
131	0x3d97e7f6	0.0741729
132	0xbd2ae8d4	-0.04172595
133	0xbd7e312c	-0.062058613
134	0x3d3b33bc	0.045703635
135	0x3dbaa17a	0.091128305
136	0x3ccae488	0.024767175
137	0xbd6d7863	-0.057976138
138	0xbcfc16e8	-0.030772641
139	0x3da36d02	0.07979776
140	0x3de05327	0.1095336
141	0xbc6da280	-0.014504075
142	0xbdbf9aa4	-0.09355667
143	0x3dc0c090	0.094117284
144	0xbdb2d624	-0.0873225
145	0x3d3d667c	0.046240315
146	0xbd7e40f0	-0.062073648
147	0xbd195d38	-0.037442416
148	0xbdb0777c	-0.0861654
149	0xbdd6b360	-0.10483432
150	0x3cbf8260	0.023377597
151	0xbcce3848	-0.025173321
152	0x3d594b08	0.05305007
153	0xbbf384a0	-0.0074315816
154	0xbdab2f7a	-0.08358665
155	0xba825780	-0.000994429
156	0xbd95f392	-0.07321848
157	0x3dc24e53	0.094875954
158	0x3d585c34	0.052822307
159	0x3d267e3c	0.04064773
160	0x3d834496	0.06409566
161	0xbd1f72d8	-0.038927883
162	0x3dc91c82	0.098198906
163	0x3ddeb170	0.10873687
164	0xbdf989e8	-0.12184507
165	0xbdc373c6	-0.095435664
166	0x3d839c32	0.06426276
167	0x3d7a2dc4	0.0610788
168	0x3db105a2	0.086436525
169	0xbd77e3d0	-0.060519993
170	0x3d826286	0.06366448
171	0xbd1c4e18	-0.038160414
172	0x3d8df840	0.069321156
173	0xbd13f5c8	-0.036123067
174	0x3dfe4120	0.12414765
175	0xbda689f6	-0.08131783
176	0xbdd843f8	-0.10559839
177	0xbd45691d	-0.048195947
178	0xbc1a6cb0	-0.009425327
179	0x3b9a11e0	0.004701838
180	0xbdff98a6	-0.12480287
181	0xbd4655a4	-0.048421517
182	0x3cd21be0	0.025648057
183	0xbd0b0774	-0.033942655
184	0x3da42184	0.08014205
185	0xbd737c12	-0.059444495
186	0x3dc18cf8	0.09450716
187	0xbdd3244c	-0.103096575
188	0xbdfc936a	-0.123328045
189	0xbdaad99e	-0.083422884
190	0x3c65ca80	0.014025331
191	0xbd2c4b72	-0.042064138
192	0x3d1c72d8	0.03819546
193	0x3daeab83	0.08528807
194	0x3d2691c0	0.04066634
195	0x3d0eab72	0.03483147
196	0x381db000	3.759563e-05
197	0xbca09a78	-0.019604906
198	0x3ac33e00	0.0014895797
199	0xb8d6f000	-0.00010249019
200	0x3dbfc362	0.09363438
201	0x3d8c3b9c	0.06847307
202	0x3db82340	0.089910984
203	0x3dfd0e84	0.12356284
204	0xbcd858b4	-0.026409484
205	0xbdf7beee	-0.12096964
206	0xbda2fda5	-0.07958535
207	0x3d671b64	0.056422606
208	0x3c52b280	0.0128599405
209	0x3c09ca70	0.008410081
210	0x3def8b10	0.11696446
211	0xbd0cfd2d	-0.034421135
212	0x3d2b6c3c	0.041851267
213	0x3d92686d	0.07148824
214	0xbdc42f32	-0.09579314
215	0x3de685ba	0.11255975
216	0xbde6718a	-0.112521246
217	0xbd9fcd10	-0.078027844
218	0x3dd9ca92	0.1063434
219	0xbb8bcec0	-0.00426659
220	0xbd81b94a	-0.06334169
221	0xbc2bb9d1	-0.010481314
222	0x3dc07604	0.0939751
223	0xbc744175	-0.014908184
224	0x3c29b78f	0.010358705
225	0x3df4fd4e	0.119623765
226	0x3d656f64	0.056014434
227	0x3d1e72ec	0.038683817
228	0xbdd7f761	-0.10545231
229	0xbc99bf70	-0.018768042
230	0xbdee99b2	-0.11650409
231	0xbd988198	-0.07446593
232	0x3df07ea7	0.11742907
233	0xbdf95668	-0.12174684
234	0x3dda3b46	0.10655837
235	0xbcb7b96c	-0.022427283
236	0x3dad2cab	0.08455785
237	0xbd910d50	-0.07082617
238	0xbde690da	-0.11258097
239	0x3c9f5cd8	0.019453451
240	0x3d4dbae0	0.050227046
241	0xbdf33524	-0.1187537
242	0xbb0faac0	-0.0021921843
243	0x3dc480d6	0.09594886
244	0xbd8812b8	-0.06644195
245	0x3c05478e	0.008134736
246	0xbdfa2d87	-0.12215715
247	0x3d865269	0.06558687
248	0xbde8ec31	-0.11373175
249	0xbcfa5698	-0.03055887
250	0xbd6463d3	-0.055759262
251	0xbd31ae58	-0.043379158
252	0x3d863cf4	0.06554595
253	0x3d5a135e	0.053241126
254	0x3d4c6510	0.04990107
255	0x3d2b2540	0.04178357

lstm.bias_hh_l0 f4 [256]
0	0xbd6648d4	-0.056221798
1	0xbdd3ad90	-0.10335839
2	0xbcde5b38	-0.027143106
3	0x3da82e40	0.082119465
4	0xbdc6745e	-0.09690164
5	0xbdb251ba	-0.08706994
6	0xbdabd1af	-0.08389603
7	0x3dde762a	0.10862382
8	0x3c136fd0	0.008998826
9	0x3d11a944	0.035561815
10	0xbd96c3e0	-0.07361579
11	0xbd557fdb	-0.052123886
12	0xbd3bd534	-0.045857623
13	0xbdda5a52	-0.106617585
14	0xbdb193d6	-0.086707756
15	0x3d29d79f	0.041465398
16	0xbccff343	-0.02538455
17	0xbd549200	-0.05189705
18	0x3d59389e	0.05303251
19	0x3d9ec23a	0.077518895
20	0xbc9eb2d0	-0.019372374
21	0xbd3a8e20	-0.045545697
22	0x3df643da	0.120246604
23	0x3dec87f2	0.11549367
24	0x3dcdd1f7	0.10049813
25	0x3d672d10	0.05643946
26	0xbda1ea04	-0.07905963
27	0xbd6560ec	-0.056000635
28	0x3db5a29c	0.08868906
29	0xbd307978	-0.04308459
30	0xbd09b338	-0.033618182
31	0xbdc1ad84	-0.094569236
32	0x3c8540c9	0.016266244
33	0x3ced6bd0	0.028982073
34	0xbb0077c0	-0.0019602627
35	0x3d84ccf0	0.06484401
36	0xbc8108a8	-0.015751198
37	0x3d7b2fe0	0.061324954
38	0x3d86d56c	0.06583676
39	0x3dd3849a	0.10328026
40	0x3d2a89e8	0.041635424
41	0xbd2a40e0	-0.041565776
42	0xbcf046ff	-0.029330729
43	0x3d82c19e	0.06384586
44	0x3d4922e4	0.04910554
45	0xbde33860	-0.11094737
46	0xbde72fe0	-0.11288428
47	0xbdd375be	-0.10325192
48	0x3b41a771	0.0029549266
49	0xbd4a8328	-0.049441487
50	0x3dc08794	0.094008595
51	0x3c70d71f	0.014699726
52	0x3d569a36	0.05239316
53	0x3de17f42	0.110106006
54	0xbc9420e8	-0.018082097
55	0xbd6afe22	-0.057371266
56	0xbdafb6dc	-0.085797995
57	0xbd0082f7	-0.031374898
58	0xbdad00f4	-0.084474474
59	0xbd038e80	-0.03211832
60	0xbdec8506	-0.1154881
61	0xbdef3512	-0.11680044
62	0xbdb04810	-0.08607495
63	0x3cebb049	0.028770583
64	0x3dcfda82	0.10149099
65	0x3dd7928e	0.10526
66	0x3d91a2b8	0.07111114
67	0xbcf61ab8	-0.030042037
68	0xbd3d9b38	-0.046290606
69	0x3d410318	0.04712209
70	0xbd09cd40	-0.033643007
71	0xbdbff70a	-0.09373291
72	0xbd74ad90	-0.059735835
73	0x3dbbe2c1	0.09174109
74	0x3c8be8e8	0.017078832
75	0xbd5f5cf1	-0.054531995
76	0xbce46340	-0.027879357
77	0x3d35ddb8	0.0444009
78	0x3de3f687	0.11131006
79	0xbc540900	-0.012941599
80	0x3c834750	0.016025215
81	0xbd4b650c	-0.049656913
82	0x3dffaa82	0.12483694
83	0xbdb919e0	-0.090381384
84	0x3cdbda48	0.026837483
85	0x3d61f888	0.05516866
86	0xbd60370f	-0.054740008
87	0xbd96d884	-0.07365516
88	0x3dbd695a	0.0924861
89	0xbd10e9b8	-0.03537914
90	0xbd665a10	-0.056238234
91	0xbce1c678	-0.027560458
92	0x3dd6271d	0.10456679
93	0x3d424bfc	0.047435746
94	0xbd571e84	-0.052519336
95	0x3d88efa5	0.066863336
96	0xbbe41572	-0.0069605643
97	0x3dc290c0	0.09500265
98	0x3dbccbaa	0.09218533
99	0x3dea9ffb	0.11456295
100	0x3dba4dd0	0.09096873
101	0x3d83085a	0.06398077
102	0x3ced7910	0.028988391
103	0x3de0d1d6	0.10977523
104	0x3e049933	0.12949066
105	0xbdb14d60	-0.08657336
106	0x3d4f6a84	0.05063869
107	0x3d4c6470	0.049900472
108	0x3db7b10a	0.089693144
109	0xbdbdba00	-0.09263992
110	0x3dd9756c	0.106180996
111	0xbc9a2f30	-0.018821329
112	0x3ce57458	0.028009579
113	0xbd1f7bf4	-0.03893657
114	0xbd994c14	-0.07485214
115	0xbd90cf5c	-0.07070801
116	0x3dc5e966	0.09663658
117	0x3d243d34	0.04009743
118	0xbdbe85ec	-0.09302887
119	0x3d0d98cc	0.034569547
120	0xbde10806	-0.109878585
121	0xbda13f5a	-0.078734115
122	0xbd9118a6	-0.070847794
123	0xbaf5b280	-0.0018745214
124	0xbca190b8	-0.019722328
125	0x3d24ba57	0.04021677
126	0xbdb9eeb4	-0.09078732
127	0xbdd48290	-0.10376465
128	0xbd32da9c	-0.043665513
129	0xbd384d37	-0.044995513
130	0x3dd0b0c0	0.101899624
131	0x3c9351ce	0.017983343
132	0xbdb36e94	-0.087613255
133	0x3d9b5a8c	0.0758563
134	0xbc988e58	-0.018622562
135	0xbd64734c	-0.05577402
136	0xbc8d8ae8	-0.01727815
137	0x3df2febc	0.11864993
138	0x3dd14528	0.10218269
139	0xbd08b140	-0.033372164
140	0xbddecf0d	-0.108793356
141	0x3dca52f2	0.09879102
142	0xbd1beea8	-0.038069397
143	0xbd48c57c	-0.04901646
144	0xbdc2cab2	-0.09511317
145	0x3de6490c	0.11244401
146	0x3da610b2	0.08108653
147	0xbd2e1864	-0.04250373
148	0xbd87999a	-0.06621094
149	0x3dac0e60	0.08401179
150	0xbcb1c450	-0.021700054
151	0xbd7646c0	-0.060126066
152	0x3d66ad78	0.056317776
153	0xbd7df468	-0.062000662
154	0xbd0fcea0	-0.035109162
155	0x3d1f1490	0.03883797
156	0xbdcedc86	-0.10100655
157	0xbd7cdeb1	-0.061735813
158	0xbc8b0ff8	-0.016975388
159	0x3dadeb14	0.08492103
160	0xbda74942	-0.0816827
161	0xbd62c48c	-0.055363223
162	0x3c764100	0.015030146
163	0xbceeec8b	-0.029165527
164	0xbde0c0a8	-0.10974246
165	0xbd00e4f4	-0.031468347
166	0xbd196624	-0.037450925
167	0x3dfdb9e2	0.1238897
168	0xbc9a4220	-0.018830359
169	0xbdd88aa6	-0.1057332
170	0x3dfa8c3e	0.1223378
171	0xbde171dc	-0.11008045
172	0xbd4584f8	-0.048222512
173	0x3db72806	0.08943181
174	0x3d33a460	0.043857932
175	0xbdb4a870	-0.088211894
176	0x3dce7428	0.10080749
177	0x3df6c9e0	0.12050223
178	0x3db479da	0.08812304
179	0xbdf33b48	-0.118765414
180	0x3d068774	0.032844022
181	0x3dddf0b0	0.10836923
182	0x3d2d71c0	0.04234481
183	0xbc695052	-0.014240341
184	0x3de124c2	0.10993339
185	0x3dd3674d	0.103224374
186	0xbdc88ad6	-0.09792106
187	0x3df0245e	0.117256865
188	0x3dd59064	0.10427931
189	0xbd021cc4	-0.031765714
190	0x3cad5050	0.02115646
191	0xbcee3dcc	-0.029082201
192	0xbded208c	-0.115784734
193	0x3da636fd	0.08115957
194	0x3c3c5060	0.011493772
195	0xbd689dcb	-0.056791108
196	0xbdbf368e	-0.09336577
197	0xbc47cd90	-0.012195006
198	0xbbbc6480	-0.005749285
199	0xbda52f60	-0.08065677
200	0xbcd98918	-0.02655463
201	0xbd79b9a0	-0.06096804
202	0xbd6df0cc	-0.05809097
203	0x3c8c5bd0	0.017133623
204	0xbda3e668	-0.08002931
205	0xbd97ff56	-0.07421748
206	0xbdb89d1f	-0.090143435
207	0x3df94e08	0.121730864
208	0x3d9a70ce	0.07541047
209	0xbdc835ca	-0.097758844
210	0x3cea7668	0.028620914
211	0xbdb7920d	-0.08963404
212	0x3d39daec	0.045374796
213	0x3dbb05d7	0.09131973
214	0x3d3dd7aa	0.04634825
215	0x3d8bbd28	0.06823188
216	0x3dfa7abe	0.122304425
217	0x3c16f300	0.009213209
218	0x3d81f36e	0.06345259
219	0x3de9a470	0.11408317
220	0xbde7f3f8	-0.1132583
221	0xbd4162d5	-0.047213394
222	0xbdfe8938	-0.12428516
223	0xbdc09f36	-0.09405367
224	0xbdd13580	-0.102152824
225	0x3de9f1c8	0.11423069
226	0xbdc15cfd	-0.09441564
227	0x3d2ee544	0.042699113
228	0xbdd13efb	-0.10217091
229	0x3ded4a92	0.11586489
230	0x3db9a044	0.09063771
231	0x3db9c990	0.09071648
232	0xbd8779f7	-0.0661506
233	0xbd6d0044	-0.05786158
234	0xbdd33408	-0.103126585
235	0x3dcac81d	0.0990145
236	0xbdf1da03	-0.118091606
237	0x3d63b3d4	0.05559142
238	0x3c9926f8	0.01869534
239	0xbc883560	-0.016627014
240	0x3d87d472	0.066323176
241	0xbb633c9e	-0.0034673582
242	0xbdcd1bd0	-0.100150704
243	0x3da78fd2	0.081817284
244	0xbd9eac92	-0.07747759
245	0xbcd85f0d	-0.026412511
246	0x3cc15e11	0.023604425
247	0x3df5a413	0.11994185
248	0xbde867ad	-0.113478996
249	0xbddc0104	-0.10742381
250	0x3deb3ebc	0.11486575
251	0xbd768500	-0.060185432
252	0x3d7f39b0	0.062310874
253	0x3dfd57e9	0.12370283
254	0x3de55cfc	0.11199376
255	0x3bb65d00	0.0055652857

attention_layer.weight f4 [32, 64]
0	0x3d71df3c	0.059050784
1	0xbeefb1b2	-0.46815258
2	0xbdb4980a	-0.08818062
3	0xbb0bd63c	-0.002133741
4	0xbd0f8496	-0.035038553
5	0x3b4366c0	0.0029815882
6	0xbd8f61ab	-0.070010506
7	0xbd2f61b8	-0.0428178
8	0x3de387ee	0.11109911
9	0xbe3ed0f3	-0.18634395
10	0x3d3a6358	0.045504898
11	0x3e0ee5ac	0.139548
12	0xbce0c133	-0.027435875
13	0xbdb778c2	-0.089585796
14	0x3d24608a	0.04013113
15	0xbd4ff806	-0.050773643
16	0xbdd0655c	-0.10175583
17	0x3dac6a80	0.08418751
18	0x3da41037	0.08010905
19	0xbe4ed580	-0.20198631
20	0x3da232c8	0.07919842
21	0xbda89bca	-0.082328394
22	0x3cb6e663	0.022326654
23	0xbdd00932	-0.10158004
24	0xbcaa36bf	-0.020778058
25	0xbd764a94	-0.060129717
26	0xbda4fd74	-0.08056155
27	0xbdbc1d76	-0.09185307
28	0x3e814302	0.25246435
29	0xbe8f2811	-0.27960256
30	0x3d028368	0.0318636
31	0x3d8a46fa	0.06751819
32	0xbde67f9a	-0.11254807
33	0xbd8057dc	-0.06266758
34	0x3da2d304	0.07950404
35	0x3e0e1cc1	0.13878156
36	0xbda9db98	-0.08293837
37	0xbc586db0	-0.013209745
38	0x3d046038	0.032318324
39	0x3d054514	0.03253658
40	0xbccb680d	-0.024829889
41	0x3d6a4f28	0.057204396
42	0x3e29c6c9	0.16579737
43	0x3da17a43	0.07884648
44	0x3e353644	0.17696482
45	0x3db4ae2e	0.08822285
46	0x3cfd32a8	0.030907944
47	0xbd6e468c	-0.058172747
48	0x3d2e8630	0.04260844
49	0xbded4b6d	-0.11586652
50	0x3db63de2	0.08898522
51	0x3d8129b4	0.06306782
52	0x3c971560	0.01844281
53	0xbe33c62c	-0.17556065
54	0xbdc74505	-0.09729961
55	0xbe11f9c6	-0.14255437
56	0xbd94fd1e	-0.07274841
57	0xbcef2082	-0.029190306
58	0x3d225bfb	0.0396385
59	0xbd9d43a4	-0.07678917
60	0x3d4f5d88	0.050626308
61	0x3dd86216	0.105655834
62	0x3ef56c69	0.47934273
63	0xbc45db56	-0.01207622
64	0xbd6f740c	-0.05846028
65	0xbd700400	-0.058597565
66	0x3ca08c58	0.019598171
67	0x3d811c94	0.06304279
68	0x3c201c33	0.009772348
69	0x3c87e450	0.01658836
70	0xbcabc7c8	-0.020969287
71	0x3de01a76	0.10942547
72	0x397a6400	0.00023879111
73	0xbe4f0da0	-0.20220041
74	0x3d381698	0.044943422
75	0x3d1c9f10	0.03823763
76	0xbe4f69f7	-0.20255266
77	0x3d6fb96c	0.05852644
78	0x3dd66747	0.10468917
79	0x3d91afc9	0.071136065
80	0x3ddd0054	0.10791078
81	0x3db4e4fa	0.08832736
82	0x3d537ff5	0.0516357
83	0xbe110acb	-0.14164273
84	0x3d375eac	0.04476802
85	0xbd317b95	-0.043330748
86	0xbbac763f	-0.0052631195
87	0x3cefcd10	0.029272586
88	0x3d428533	0.04749031
89	0x3dce2964	0.100664884
90	0xbdab53c8	-0.083655894
91	0x3d9d0f38	0.07668918
92	0x3e881eaf	0.2658591
93	0xbcb22334	-0.021745302
94	0x3dd96546	0.106150195
95	0x3d1de1e5	0.038545508
96	0xbb8e0256	-0.0043337746
97	0x3dc938ce	0.09825288
98	0x3d970ab2	0.07375087
99	0x3e931b38	0.28731704
100	0xbbf696af	-0.007525287
101	0xbcb82e70	-0.02248308
102	0xbd383b3c	-0.044978365
103	0xbd74648c	-0.0596662
104	0x3d329e80	0.04360819
105	0x3c8c81b0	0.017151684
106	0x3dcefe64	0.10107115
107	0xbdccec9e	-0.10006069
108	0x3e474c33	0.19462661
109	0x3c011840	0.007879317
110	0x3dd0b534	0.10190812
111	0xbddf4564	-0.10901907
112	0xbd7f7a9c	-0.06237279
113	0xbe1897db	-0.14901678
114	0x3de8b6ce	0.11362992
115	0xbe0b9d5c	-0.13634247
116	0x3da70e14	0.08156982
117	0xbcebd407	-0.028787626
118	0xbe0c551a	-0.13704339
119	0xbdc0624b	-0.09393748
120	0x3d3e4648	0.046453744
121	0x3d04e849	0.032448087
122	0x3d1d900e	0.03846746
123	0xbd94b73e	-0.07261513
124	0x3d7fddd8	0.062467426
125	0x3dc136c9	0.094342776
126	0xbddd814d	-0.10815678
127	0x3d7f4a0f	0.062326487
128	0xbd791730	-0.06081313
129	0x3da793aa	0.081824616
130	0x3dbff200	0.0937233
131	0x3db1e064	0.08685377
132	0x3dcb8126	0.099367425
133	0xbd6209e0	-0.0551852
134	0x3dd2fcf2	0.10302152
135	0x3db347ac	0.08753905
136	0x3df15318	0.11783427
137	0xbe2572c3	-0.1615706
138	0x3de99430	0.11405218
139	0x3db945e5	0.090465344
140	0xbe3f87e6	-0.18704185
141	0xbdb9b6f8	-0.09068102
142	0x3d223a8d	0.03960662
143	0xbdcfe8a0	-0.101517916
144	0x3d540c1e	0.05176937
145	0xbdca9738	-0.09892124
146	0xbb3d9af7	-0.0028931478
147	0x3cedc7e6	0.029025983
148	0xbda985d8	-0.08277482
149	0xbd132bfc	-0.03593062
150	0x3c8d9695	0.017283717
151	0xbca27de0	-0.019835413
152	0xbe2a4ae0	-0.16630125
153	0x3d2322c0	0.039828062
154	0x3c85502b	0.016273579
155	0x3dddfd88	0.10839373
156	0xbc25f94e	-0.01013024
157	0xbcf5e3e1	-0.030015888
158	0x3de189c6	0.11012606
159	0x3da11b83	0.078665756
160	0xbc3556bd	-0.011068043
161	0x3c163f60	0.009170383
162	0x3ccfb6e8	0.025355771
163	0xbdf23366	-0.1182621
164	0xbd38d68c	-0.045126483
165	0x3c342f40	0.010997593
166	0xbde73022	-0.112884775
167	0xbc423780	-0.011854053
168	0x3b860248	0.0040896274
169	0x3de1f06e	0.110321864
170	0xbc83a16d	-0.016068185
171	0x3d7feda0	0.062482476
172	0x3e011bf3	0.12608318
173	0x3c531d60	0.0128854215
174	0xbc35b310	-0.011090055
175	0x3d2379f4	0.039911225
176	0x3da3f4f4	0.080057055
177	0x3d0ff154	0.035142258
178	0xbd4b1468	-0.049580008
179	0xbdbcb046	-0.09213309
180	0x3ddf20ea	0.1089495
181	0x3cd7484d	0.026279593
182	0x3dde91f4	0.10867682
183	0xbc894fa3	-0.016761607
184	0xbde7ac0a	-0.11312111
185	0x3c14558c	0.009053599
186	0xbd54d288	-0.05195859
187	0xbd18f8e0	-0.03734672
188	0x3dd4b8ee	0.10386835
189	0x3db283ea	0.08716567
190	0xbb48c58f	-0.0030635332
191	0xbd922114	-0.071352154
192	0xbd5557a8	-0.05208555
193	0xbe8e4dd3	-0.2779375
194	0x3d81fdd4	0.06347242
195	0xbd5fbc38	-0.05462286
196	0x3db03a4b	0.086048685
197	0x3cacdeb8	0.021102294
198	0x3d750b7a	0.059825398
199	0x3c426360	0.011864513
200	0x3de53f3c	0.111937016
201	0xbd862469	-0.065499134
202	0x3da5405c	0.08068916
203	0x3d8d7295	0.069066204
204	0xbd836e69	-0.064175434
205	0xbdfd1502	-0.123575225
206	0x3e1a2ec0	0.15056896
207	0xbd6b347a	-0.057423092
208	0xbd2c33ae	-0.042041473
209	0x3df627ae	0.12019287
210	0xbdaa53b2	-0.08316745
211	0xbd9e5aa1	-0.0773213
212	0x3d47dc38	0.048794
213	0xbc53a729	-0.012918272
214	0x3dc8ce80	0.09805012
215	0xbda57fa8	-0.08080989
216	0x3a19d22b	0.0005867804
217	0xbdbf6298	-0.09344977
218	0xbe036dd6	-0.12834868
219	0x3dd15a6c	0.10222325
220	0x3e0ae1c4	0.13562685
221	0xbe5a1df3	-0.21300487
222	0x3dde58d0	0.108567834
223	0xbcf32f22	-0.02968556
224	0xbc4d2860	-0.012521833
225	0x3df6edd2	0.120570794
226	0xbdaf6ba9	-0.085654564
227	0x3df51cb6	0.11968367
228	0xbb9fecef	-0.0048805396
229	0x3ddd3876	0.10801785
230	0x3d1a336c	0.037646696
231	0x3df04496	0.11731832
232	0x3d118fb3	0.035537433
233	0x3d99f8e6	0.07518177
234	0x3dfdff3c	0.12402198
235	0xbc4b262e	-0.012399239
236	0x3e98d8af	0.29852816
237	0x3d6f69f4	0.058450654
238	0xbc859220	-0.01630503
239	0x3d9289d0	0.07155192
240	0xbdf7af1e	-0.12093948
241	0xbe107f93	-0.14111166
242	0x3cadafd8	0.021202013
243	0x3dcdd723	0.100508
244	0x3d86e4f0	0.06586635
245	0x3d583bbb	0.05279134
246	0x3d6ebf4a	0.058287896
247	0xbdb1ae60	-0.086758375
248	0x3d4179d8	0.04723534
249	0xbe13c1f6	-0.14429459
250	0xbd0780b4	-0.033081725
251	0x3d48a11c	0.04898177
252	0xbc9f6528	-0.019457415
253	0x3e720b91	0.23637225
254	0x3ea4d985	0.32197204
255	0x3cd43fbb	0.025909295

attention_layer.bias f4 [32]
0	0x3e4cacaf	0.19987749
1	0x3df21244	0.1181989
2	0x3e0ce72a	0.13760057
3	0x3e4ba374	0.19886571
4	0xbd11549f	-0.03548109
5	0xbd537f9c	-0.05163537
6	0x3da20298	0.07910651
7	0x3df9ffda	0.12207003
8	0x3e444567	0.191671
9	0xbdcc727a	-0.09982772
10	0xbdc2bfaa	-0.09509213
11	0x3e521f1e	0.20519683
12	0x3cb304d9	0.021852897
13	0xbd4e3536	-0.050343715
14	0xbd3e39c6	-0.046441816
15	0x3db5f6d8	0.08884972
16	0x3d1afb8f	0.03783756
17	0xbd65ade4	-0.05607404
18	0xbdf8bc89	-0.12145335
19	0x3d1bdba6	0.03805127
20	0xbdd8781c	-0.10569784
21	0x3e787741	0.24264242
22	0xbda2e96b	-0.07954677
23	0xbdaa197c	-0.08305642
24	0xbd30c33b	-0.043154936
25	0xbe083544	-0.13301569
26	0x3d90cc3f	0.07070207
27	0x3e65fa2c	0.22458714
28	0x3c2bb9d0	0.010481313
29	0x3e01b77c	0.1266765
30	0x3df47837	0.11936992
31	0x3c873d10	0.016508609

attention_score.weight f4 [1, 32]
0	0xbef0740f	-0.46963546
1	0xbebbc3c6	-0.366728
2	0xbe3379d4	-0.17526942
3	0xbf0b6112	-0.5444499
4	0xbf34855f	-0.7051601
5	0xbe8965ce	-0.26835483
6	0xbee649a7	-0.44978067
7	0xbebf7bb1	-0.37399057
8	0xbed35ed7	-0.41283295
9	0x3cb09487	0.021555198
10	0x3f8b9b4c	1.0906768
11	0xbf05a604	-0.52206445
12	0x3d102d51	0.035199467
13	0x3f2cc53c	0.67488456
14	0xbc9940de	-0.018707689
15	0x3f13bb63	0.57707804
16	0x3f38829e	0.72074306
17	0xbea3d36b	-0.31997237
18	0xbe00a0f2	-0.12561396
19	0x3d547802	0.05187226
20	0xbd821373	-0.06351366
21	0xbf93f369	-1.1558658
22	0x3f0a328e	0.5398339
23	0xbde25e8b	-0.11053189
24	0x3f0b9904	0.5453036
25	0x3db42366	0.08795814
26	0x3f26e2b5	0.6518968
27	0xbf2293ed	-0.63506967
28	0x3f2276b5	0.6346238
29	0xbeba680c	-0.36407506
30	0xbf8ee8c5	-1.1164786
31	0xbf12efa7	-0.5739693

fc.weight f4 [7, 64]
0	0xbc923da0	-0.01785165
1	0x3f841a9c	1.032062
2	0x3de54e8a	0.11196621
3	0xbf9abffa	-1.2089837
4	0x3bd82498	0.006596159
5	0xbdf642be	-0.12024449
6	0xbdb99f06	-0.090635344
7	0xbcd15f88	-0.025558248
8	0x3d2b6394	0.041843012
9	0x3f90dde6	1.1317718
10	0x3df21728	0.11820823
11	0x3b7f89e1	0.0038992094
12	0xbe076029	-0.13220276
13	0xbdda959e	-0.106730685
14	0xbf8ad330	-1.0845699
15	0xbdaa932e	-0.083288535
16	0x3f95b3b2	1.1695464
17	0x3cd48470	0.025942057
18	0x3f9db441	1.2320634
19	0xbf97180a	-1.1804211
20	0xbddf1e64	-0.108944684
21	0xbf8a0a9d	-1.0784489
22	0x3f97bc0f	1.1854266
23	0x3d867206	0.06564717
24	0xbc459fbd	-0.01206201
25	0x3c12eac0	0.008967102
26	0xbf81f1b8	-1.0151892
27	0x3dcdc0f0	0.100465655
28	0xbf975bb9	-1.1824867
29	0xbf9417f4	-1.156981
30	0x3d8e5916	0.069505855
31	0xbf990324	-1.1954083
32	0xbf96795d	-1.1755787
33	0x3dc718a6	0.09721498
34	0x3fac16d2	1.3444464
35	0x3c3ccc3c	0.011523303
36	0xbf989e91	-1.1923391
37	0x3dafa216	0.08575837
38	0xbdf9efb6	-0.12203924
39	0x3dc1373a	0.09434362
40	0xbfa002eb	-1.250089
41	0xbb8ed5e0	-0.004358992
42	0x3f94d8ad	1.1628624
43	0x3cd40024	0.025878973
44	0x3e20339c	0.15644687
45	0x3de19652	0.110149994
46	0x3d8e6008	0.0695191
47	0x3db00b5e	0.08595918
48	0xbb985017	-0.0046482193
49	0xbf93a87b	-1.1535791
50	0x3d1ccdf8	0.038282365
51	0x3f8f97c5	1.1218191
52	0xbf8f9e5f	-1.1220206
53	0xbfa10e7d	-1.2582546
54	0xbc9070ca	-0.017631907
55	0x3f885f81	1.0654145
56	0x3d169adf	0.03676879
57	0xbf827245	-1.0191122
58	0xbf898ceb	-1.074613
59	0xbbd1b7c0	-0.0064000785
60	0x3db9921a	0.0906107
61	0x3f83113d	1.0239636
62	0xbf9733bd	-1.1812664
63	0xbf9b34f1	-1.2125531
64	0xbd7d8240	-0.061891794
65	0x3f9764d4	1.1827645
66	0xbd70def4	-0.058806375
67	0xbf9192f4	-1.1372972
68	0x3d55cbda	0.05219636
69	0xbcf60e90	-0.03003624
70	0xbce80360	-0.028321922
71	0xbdbf7f70	-0.09350479
72	0x3ccba810	0.024860412
73	0x3f946345	1.1592795
74	0x3d0f1f98	0.03494224
75	0x3cbef769	0.023311334
76	0xbce000d3	-0.027344143
77	0xbdc2afc6	-0.095061824
78	0xbf9ac8e4	-1.2092557
79	0xbe13d140	-0.14435291
80	0x3f8e3f2a	1.1113026
81	0xbde893f0	-0.11356342
82	0x3fa19091	1.2622243
83	0xbf9eb53b	-1.2399057
84	0x3d9c76ee	0.076398715
85	0xbf9d1ae0	-1.2273827
86	0x3f867b7a	1.0506432
87	0x3daaef8e	0.08346473
88	0xbd858547	-0.06519561
89	0xbb9dae60	-0.004812047
90	0xbf876aec	-1.0579505
91	0xbdd6f962	-0.10496785
92	0xbf91d7b3	-1.1393951
93	0xbf901070	-1.1255016
94	0x3d96cbae	0.073630676
95	0xbf8c7fc0	-1.0976486
96	0xbf9a3ef9	-1.2050468
97	0x3cfacd70	0.030615538
98	0x3fa88e12	1.3168356
99	0xbd57a0f5	-0.052643735
100	0xbf87516c	-1.0571723
101	0x3dc6ebc2	0.09712936
102	0x3d31db68	0.043422133
103	0xbda791be	-0.08182095
104	0xbf976e30	-1.1830502
105	0xbc981cd0	-0.018568426
106	0x3f7d9c94	0.99067044
107	0xbce62b86	-0.028096925
108	0x3e0e39f9	0.13889302
109	0xbdfb714a	-0.122774675
110	0x3b4822c0	0.003053829
111	0x3db1951c	0.086710185
112	0xbd992e0d	-0.074794866
113	0xbf8f7634	-1.1207948
114	0xbcfea4d0	-0.031084448
115	0x3fa019a7	1.2507828
116	0xbf9468de	-1.1594503
117	0xbfa378ff	-1.27713
118	0xbdc92403	-0.09821322
119	0x3f88c51a	1.0685151
120	0xbc617d77	-0.013762823
121	0xbf8382a6	-1.0274246
122	0xbf9a3ee6	-1.2050445
123	0xbc1ba780	-0.009500384
124	0x3dbc5800	0.09196472
125	0x3f93e7f5	1.1555163
126	0xbf9561a5	-1.1670424
127	0xbf8c862a	-1.0978444
128	0x3d234c24	0.039867535
129	0x3f87b634	1.0602479
130	0x3db3142c	0.08744082
131	0xbf932fd2	-1.1498969
132	0xbdd84686	-0.10560326
133	0xbd7d8124	-0.061890736
134	0x3b28f294	0.0025779353
135	0x3cabad28	0.02095659
136	0x3d280cb8	0.041027755
137	0x3f90d997	1.1316403
138	0xbc5c7350	-0.013455227
139	0xbb31e609	-0.0027145168
140	0x3d592482	0.053013332
141	0x3d34aecc	0.04411201
142	0xbf87a526	-1.0597274
143	0x3c9fe19b	0.019516757
144	0x3f955512	1.1666586
145	0x3daf312c	0.08554301
146	0x3f8c3e49	1.0956508
147	0xbf983cf1	-1.1893598
148	0x3ce44080	0.027862787
149	0xbf940df2	-1.1566756
150	0x3f9490ab	1.1606649
151	0x3c666010	0.014060989
152	0xbd30bd0d	-0.043149043
153	0xbdcf1486	-0.101113364
154	0xbf8ebf24	-1.1152081
155	0xbcc2a7a0	-0.02376157
156	0xbf889e13	-1.067324
157	0xbf98436f	-1.1895579
158	0xba901480	-0.0010992438
159	0xbf8ab045	-1.0835043
160	0xbf9b6981	-1.2141572
161	0xbd92b614	-0.07163635
162	0x3f9b673e	1.2140882
163	0x3ce1c683	0.027560478
164	0xbf93e027	-1.1552781
165	0x3c400430	0.011719748
166	0x3d8e8178	0.06958288
167	0x3c7d0280	0.015442491
168	0xbf93691d	-1.1516453
169	0xbdc67aac	-0.096913666
170	0x3f897225	1.0737959
171	0xbb93ae21	-0.004506842
172	0x3e1d6cd8	0.15373552
173	0xbd0d3138	-0.034470767
174	0xbc9ad668	-0.018901065
175	0xbdcbe714	-0.09956184
176	0x3d200541	0.03906751
177	0xbf980c95	-1.187884
178	0x3d8a3972	0.06749238
179	0x3f89684c	1.0734954
180	0xbf8649cf	-1.0491275
181	0xbf949eff	-1.1611022
182	0x3d2d5918	0.042321295
183	0x3f8bc10b	1.0918287
184	0x3da900c6	0.08252101
185	0xbf8983db	-1.0743364
186	0xbf9abb3b	-1.2088388
187	0xbdfb932c	-0.1228393
188	0x3d65dec4	0.05612065
189	0x3f90b614	1.1305566
190	0xbf931868	-1.1491823
191	0xbf8c539a	-1.0963013
192	0xbcdfd9f0	-0.0273256
193	0x3f977a67	1.1834229
194	0xbd777874	-0.060417607
195	0xbf917bbb	-1.1365885
196	0x3dee523d	0.116367795
197	0xbccd1748	-0.025035515
198	0xbd897143	-0.06711056
199	0x3d4bd56c	0.04976408
200	0xbb586c40	-0.0033023506
201	0x3f7dafbe	0.99096286
202	0x3d14b774	0.036307767
203	0xbd94e1b7	-0.07269614
204	0x3d1e8d3b	0.038708907
205	0x3da544ea	0.08069785
206	0xbf9231b9	-1.1421424
207	0x3a0c6454	0.0005355526
208	0x3f8d34b2	1.1031706
209	0xbd82df62	-0.06390263
210	0x3f914c4c	1.1351409
211	0xbfa587db	-1.2932085
212	0xbdfaccc8	-0.1224609
213	0xbf93cb2e	-1.154638
214	0x3f8b1989	1.0867168
215	0x3c7c94d0	0.015416339
216	0xbdb57a8f	-0.08861267
217	0x3d80ca8e	0.06288634
218	0xbf80f524	-1.0074811
219	0x3df06994	0.117388874
220	0xbf83673e	-1.0265882
221	0xbf95d2b3	-1.1704925
222	0xbdd6a524	-0.10480717
223	0xbf994ae4	-1.197598
224	0xbf8fca1f	-1.1233557
225	0x3d585fec	0.052825853
226	0x3f9ebdd8	1.2401686
227	0xbd5e984e	-0.054344468
228	0xbf80d582	-1.0065157
229	0x3d477658	0.048696846
230	0xbded91dc	-0.11600086
231	0xbce6bf70	-0.028167456
232	0xbf9e35ad	-1.236013
233	0xbd59a244	-0.053133264
234	0x3f7aa404	0.9790652
235	0x3b663618	0.0035127457
236	0x3e4231f7	0.18964373
237	0x3b8a1f60	0.004215166
238	0xbd15a064	-0.036529914
239	0xbd4b3394	-0.049609736
240	0xbde528c7	-0.11189418
241	0xbf9fe960	-1.2493095
242	0xbd7b91d8	-0.061418384
243	0x3fa14779	1.2599937
244	0xbf9289e2	-1.1448328
245	0xbfaea54b	-1.3644193
246	0x3d953547	0.072855525
247	0x3f927303	1.1441349
248	0x3d9c339e	0.07627033
249	0xbf7d1f27	-0.9887566
250	0xbf7992df	-0.9748973
251	0x3daaa872	0.0833291
252	0xbd972e78	-0.0738191
253	0x3f918290	1.136797
254	0xbf8feb0a	-1.1243603
255	0xbf90e30b	-1.1319288

fc.bias f4 [7]
0	0x3f81e81c	1.0148959
1	0x3f833498	1.0250425
2	0x3f7d59ee	0.98965347
3	0x3f93d1e8	1.1548433
4	0x3f95ac0c	1.169313
5	0x3f7c0bef	0.9845571
6	0x3f7a34e6	0.97736967
