lightning_logs/version_2/checkpoints/epoch=29-step=1020.ckpt (torch, 562191 bytes, 33 tensors)

cnn.weight f4 [32, 15, 3]
-0.11458954 -0.082877524 -0.0076224823 -0.12744322 -0.13226065 0.110375404 0.014027312 -0.06773448
-0.0052569862 0.11054601 -0.12715065 -0.080212794 -0.10779942 -0.015093365 -0.009319052 -0.11617205
0.10334991 -0.114592746 0.1391782 -0.10348329 -0.021296605 0.027874365 -0.06546571 0.13788478
-0.1027748 -0.006872928 -0.10806872 0.041380763 0.12639983 0.1375201 0.017696798 -0.07433262
0.1448722 0.011125237 0.098987855 -0.079322286 -0.06918295 -0.12555292 0.13533686 0.024728566
-0.10859523 0.011270621 -0.0639374 0.0050940122 0.04706438 -0.06588161 0.029563224 -0.09990416
0.028880246 -0.14541468 0.02194358 0.12608549 0.13875361 0.061306275 0.11254903 0.1392545
0.040182516 0.06126691 0.03118631 0.13376065 0.12860718 -0.07090664 -0.007716186 -0.07308698
0.05332353 -0.1490438 0.051168833 -0.042561132 0.050193436 0.04497714 -0.074755855 0.07460284
0.066835925 -0.12715948 0.15269017 0.12986489 0.08970923 -0.01852138 0.056315027 -0.07909652
-0.059358396 0.07340993 0.067709304 0.05063741 -0.13885908 0.12485149 -0.07082815 0.13050261
0.12355306 0.044913907 0.14851813 0.085599706 0.08742814 -0.050620437 0.13826136 0.0390708
0.08807659 -0.033706166 0.10796048 0.13224138 -0.114226006 0.122209206 -0.09851961 -0.102631554
-0.12457666 0.043075576 -0.111926734 -0.05611545 -0.07493597 0.039841563 -0.1463523 -0.068340406
0.0010905266 0.01338692 -0.06732419 0.053406805 -0.09835033 -0.12624687 -0.0211927 -0.0805951
0.09396453 -0.10189296 -0.012514874 0.061917275 -0.13054746 0.11539899 -0.06773425 -0.0405647
-0.09118891 -0.055549555 -0.057480305 -0.13265501 0.050938755 -0.0004775524 0.14582603 0.10020373
0.12513013 0.04112089 0.0775413 0.139188 0.12157918 -0.10233615 -0.024186302 -0.14443782
0.010937322 -0.04888893 0.12684627 0.018853283 -0.0030164502 -0.11135105 -0.11578553 0.024662666
-0.073908605 -0.06834522 0.10467977 -0.07887178 -0.062447082 0.1184619 0.05825069 -0.078788795
0.051060487 0.07529757 -0.13700473 0.027055508 0.033930965 -0.0053771236 0.14239135 -0.098532476
0.08216103 -0.077655464 -0.12961634 0.10273886 -0.07031583 0.004992347 0.080773376 -0.12204831
-0.12969986 0.053549066 0.13351521 -0.018087301 0.10497917 0.052383706 0.042530432 -0.095043615
0.14187382 0.06828067 0.023049906 0.105438665 -0.12808605 0.032122448 -0.07017209 -0.015137821
0.048840642 0.06602317 0.034197897 -0.1153741 -0.09329361 0.0026028752 -0.025817834 -0.12477473
0.14685993 0.018750653 -0.10592257 0.06538054 0.06477131 -0.073129214 0.074750885 -0.09247534
0.051650375 0.14160348 0.09840652 0.07359481 -0.030328728 0.027985841 0.052017152 0.036406554
-0.030200653 0.020795992 -0.06038196 -0.084265046 -0.13757133 -0.12154219 -0.09357426 0.14249207
0.029827572 -0.11848977 -0.06539146 0.03598779 -0.029953418 -0.035348956 -0.05354276 -0.013488661
0.027375676 -0.00907979 0.11338735 0.12071411 0.1276721 0.010313181 -0.051178943 0.005293886
-0.09616078 0.0631187 -0.016847473 -0.03562767 -0.11592156 0.07611751 0.095361166 0.15142828
-0.045737244 0.059887763 0.024504738 -0.08603967 -0.090183325 0.075278774 -0.09457142 0.10975255
00000000: ecad eabd b1bb a9bd 04c6 f9bb 7a80 02be
00000010: 566f 07be 800c e23d d0d2 653c 60b8 8abd
00000020: cc42 acbb f265 e23d c833 02be 9b46 a4bd
00000030: f1c5 dcbd 294a 77bc f0ae 18bc 9deb edbd
00000040: 1ea9 d33d 9aaf eabd bb84 0e3e 0cef d3bd
00000050: 3876 aebc c858 e43c e312 86bd ab31 0d3e
00000060: 987b d2bd 4c36 e1bb 2253 ddbd e07e 293d
00000070: f56e 013e 12d2 0c3e e0f8 903c b33b 98bd
00000080: 6159 143e a046 363c 25ba ca3d b973 a2bd
00000090: caaf 8dbd f290 00be bf95 0a3e 9093 ca3c
000000a0: 2d67 debd 69a8 383c 9df1 82bd aceb a63b
000000b0: 94c6 403d f0ec 86bd 932e f23c 8d9a ccbd
000000c0: 4496 ec3c 96e7 14be 06c3 b33c 8e1c 013e
000000d0: 6d15 0e3e 4a1c 7b3d 1b80 e63d bb98 0e3e
000000e0: 6c96 243d 03f3 7a3d 6f7a ff3c 8df8 083e
000000f0: 9ab1 033e 8037 91bd 0fd8 fcbb a0ae 95bd
00000100: c669 5a3d f09e 18be 6996 513d 9554 2ebd
00000110: a297 4d3d f339 383d 9919 99bd 60c9 983d
00000120: 46e1 883d 1836 02be d05a 1c3e 4dfb 043e
00000130: 79b9 b73d 26ba 97bc 96aa 663d 5bfd a1bd
00000140: ca21 73bd f257 963d 2dab 8a3d 2c69 4f3d
00000150: 1331 0ebe 23b2 ff3d 590e 91bd 7aa2 053e
00000160: 6309 fd3d a5f7 373d 2315 183e e64e af3d
00000170: 860d b33d 6057 4fbd 6394 0d3e b408 203d
00000180: 8061 b43d 7a0f 0abd 621a dd3d 496a 073e
00000190: 53ef e9bd d248 fa3d a6c4 c9bd 7e30 d2bd
000001a0: 0c22 ffbd 0470 303d d839 e5bd 50d9 65bd
000001b0: 0878 99bd e830 233d 61dd 15be 0ef6 8bbd
000001c0: 00f0 8e3a d054 5b3c 44e1 89bd 18c1 5a3d
000001d0: e66b c9bd dc46 01be 509c adbc 0b0f a5bd
000001e0: 7a70 c03d 42ad d0bd 300b 4dbc f89c 7d3d
000001f0: 3cae 05be 4e56 ec3d 41b8 8abd 2c27 26bd
00000200: 40c1 babd ee87 63bd 7870 6bbd b7d6 07be
00000210: 28a5 503d 0060 fab9 6b53 153e 9d37 cd3d
00000220: 1d22 003e 616e 283d f9cd 9e3d 4d87 0e3e
00000230: 81fe f83d 9e95 d1bd 5a22 c6bc 82e7 13be
00000240: 7432 333c c23f 48bd fde3 013e 3372 9a3c
00000250: a3af 45bb 050c e4bd f720 edbd 5c09 ca3c
00000260: 655d 97bd 94f8 8bbd 5962 d63d 8787 a1bd
00000270: 83c8 7fbd 279c f23d 4798 6e3d 055c a1bd
00000280: cd24 513d 9d35 9a3d f84a 0cbe 83a3 dd3c
00000290: 32fb 0a3d 9532 b0bb 0acf 113e 65cb c9bd
000002a0: 0b44 a83d d409 9fbd 25ba 04be c068 d23d
000002b0: bf01 90bd d896 a33b 836c a53d 77f4 f9bd
000002c0: 0ad0 04be 4456 5b3d 36b8 083e d22b 94bc
000002d0: 52ff d63d 4c90 563d 6434 2e3d 3aa6 c2bd
000002e0: 5f47 113e bcd6 8b3d 28d3 bc3c 3af0 d73d
000002f0: fd28 03be d492 033d 62b6 8fbd a004 78bc
00000300: 200d 483d 2837 873d 1813 0c3d 4249 ecbd
00000310: b810 bfbd 0095 2a3b ec7f d3bc e589 ffbd
00000320: 7362 163e f89a 993c efed d8bd 3ce6 853d
00000330: d2a6 843d c5c4 95bd fe16 993d b663 bdbd
00000340: 588f 533d 8100 113e 5c89 c93d e0b8 963d
00000350: f473 f8bc 9042 e53c f00f 553d 0a1f 153d
00000360: 5c67 f7bc 5b5c aa3c 1353 77bd 2793 acbd
00000370: 80df 0cbe 1deb f8bd dda3 bfbd 71e9 113e
00000380: f458 f43c c4aa f2bd f5eb 85bd ef67 133d
00000390: df60 f5bc 11ca 10bd a74f 5bbd 8bff 5cbc
000003a0: f442 e03c 66c3 14bc a137 e83d f638 f73d
000003b0: 7abc 023e 9ef8 283c 03a1 51bd 5678 ad3b
000003c0: f1ef c4bd 6144 813d b603 8abc 52ee 11bd
000003d0: 4868 edbd 7fe3 9b3d b74c c33d 0410 1b3e
000003e0: fa56 3bbd df4c 753d 29be c83c 9135 b0bd
000003f0: 09b2 b8bd c22b 9a3d a9ae c1bd f2c5 e03d

cnn.bias f4 [32]
-0.12550683 0.06826364 -0.0184004 -0.12523912 -0.119637266 -0.13167676 0.027934626 -0.05434246
-0.07440005 0.1497584 -0.045425683 0.066033006 -0.02866214 0.07714883 0.04448518 0.09043351
0.031280182 -0.03698381 0.13444117 -0.010627463 -0.0919856 0.0530913 -0.018750377 -0.110555865
0.031253155 -0.031847227 -0.05936487 -0.072403744 -0.065109596 -0.065753266 0.023887658 0.14452967
00000000: dd84 00be cfcd 8b3d 70bc 96bc af3e 00be
00000010: 6204 f5bd 46d6 06be 28d7 e43c 3396 5ebd
00000020: 0e5f 98bd 445a 193e 4810 3abd 503c 873d
00000030: ddcc eabc 3500 9e3d 1836 363d 3435 b93d
00000040: a61f 003d 567c 17bd f2aa 093e d01e 2ebc
00000050: f262 bcbd 4376 593d 649a 99bc 1d6b e2bd
00000060: 4f03 003d 3d72 02bd 9428 73bd 6a48 94bd
00000070: 2e58 85bd a6a9 86bd 0db0 c33c 96ff 133e

lstm.weight_ih_l0 f4 [256, 32]
-0.07326689 -0.05831498 -0.08379336 -0.0047432035 0.008764237 -0.08579917 0.0570962 -0.112108424
0.11569531 0.02352354 -0.012598172 -0.044758216 0.056124985 0.09127924 -0.08176105 -0.03133221
0.09201948 -0.023425862 -0.092042536 -0.04017073 0.0043178797 -0.02333583 -0.08566199 -0.07831152
0.03379859 0.08576751 0.11371514 -0.01412867 0.048094153 -0.09927763 0.066608384 0.11944392
0.07409986 -0.014983832 0.10191488 -0.08909292 -0.014999583 0.0041295276 -0.124683306 -0.033230837
-0.06912721 0.06986371 -0.010397553 0.08806496 0.009837577 0.12222336 0.014158517 0.1325874
0.13577916 -0.06884767 -0.044560935 0.075290844 0.12710656 -0.072239526 0.0073851137 -0.04805763
0.15379792 0.12595561 0.09097533 0.09466547 -0.0028447742 0.123806395 -0.03288862 0.028152822
-0.032889634 -0.07464229 -0.059235826 0.033280265 -0.01115264 -0.06763158 -0.015891418 0.038169444
-0.07219847 0.08579138 -0.10199318 0.011875106 -0.09931259 -0.10262197 -0.015527695 0.121780075
0.1356467 0.06378697 0.11429336 -0.06833109 0.075811855 0.09176083 -0.116378315 -0.095791414
0.07003874 0.022288352 -0.08461 -0.09575908 0.09034115 0.018326921 0.011003566 -0.1075685
0.109674126 -0.08263248 0.05569844 -0.015030429 0.0040732175 0.06137629 -0.033298656 -0.035068244
0.099647984 -0.09578502 0.05562608 -0.03225884 -0.04176645 0.08367714 0.021103129 -0.11637688
0.11170289 -0.06202537 0.10806069 -0.039230525 0.121879876 0.036875203 -0.006038487 0.047716632
-0.0038871318 -0.061997965 0.06837614 0.08107747 -0.015659839 0.11757746 0.007938236 -0.06610681
-0.06811866 0.084103644 -0.050635934 0.07895091 -0.1214242 0.0043058842 -0.0863682 0.044340417
0.10151531 0.049188986 -0.04297833 -0.11726384 -0.059225023 -0.0737271 0.11936468 -0.06720789
0.048331678 0.10034573 0.045064732 -0.10968821 -0.01419948 -0.037099764 0.08053902 -0.0117255
-0.0065930635 0.1111964 0.029745251 0.057944313 -0.04023865 0.08174674 0.017972633 -0.025109172
0.024089158 -0.0983931 0.0045962483 0.05732663 -0.117048234 -0.0663975 0.07831518 0.0028347522
-0.0042577833 0.012756094 -0.056102455 0.10336535 -0.0123940855 -0.045513734 0.065798715 -0.104043484
-0.023056686 0.012598544 -0.038792804 0.0680318 -0.10674989 -0.0360367 -0.052537233 0.11566664
0.049885646 -0.09324536 0.048445582 -0.0026508868 0.11442827 0.06898306 -0.073003456 0.11142373
-0.022356927 -0.028463677 0.03737846 0.124188855 0.03771612 -0.12060794 -0.039903134 0.116398335
-0.04405661 -0.060136855 -0.099635854 -0.06900166 -0.06834315 0.029853374 0.04994069 0.11929689
0.08203356 0.0018469989 0.06741199 0.0714484 -0.10781562 0.063074395 -0.08550842 0.0965271
-0.054367915 0.025935978 -0.0013300478 0.05799292 0.019442528 -0.09067437 0.050636336 0.07373704
-0.05660861 -0.072373606 -0.08511679 -0.060819417 -0.015759498 0.017628625 -0.0008816421 -0.025379332
0.085937016 0.014918784 -0.072581574 -0.025123684 -0.07349186 -0.03597483 -0.11791308 0.030359682
-0.09034502 0.05718384 0.08562997 -0.09299095 -0.057713993 -0.0901826 0.033358827 0.02418688
-0.057263143 0.08429852 0.05186835 -0.11294231 -0.00071059394 -0.047543325 -0.012972345 0.07826462
00000000: f40c 96bd b0db 6ebd da9b abbd e06c 9bbb
00000010: e097 0f3c 7ab7 afbd b4dd 693d 1a99 e5bd
00000020: aaf1 ec3d 70b4 c03c 9068 4ebc 6454 37bd
00000030: 50e3 653d 9cf0 ba3d 5672 a7bd 3456 00bd
00000040: b674 bc3d 98e7 bfbc cc80 bcbd 108a 24bd
00000050: 007d 8d3b c82a bfbc 8e6f afbd ca61 a0bd
00000060: 6470 0a3d e0a6 af3d 7ce3 e83d f07b 67bc
00000070: 60fe 443d 1252 cbbd fa69 883d 049f f43d
00000080: abc1 973d bf7e 75bc c0b8 d03d 5976 b6bd
00000090: d0c0 75bc fd50 873b f659 ffbd 0f1d 08bd
000000a0: 9192 8dbd b414 8f3d 805a 2abc 675b b43d
000000b0: ca2d 213c 3e50 fa3d 20f9 673c fec4 073e
000000c0: b109 0b3e 0200 8dbd 8785 36bd 1632 9a3d
000000d0: 3928 023e 51f2 93bd d3fe f13b 14d8 44bd
000000e0: 347d 1d3e 82fa 003e 4651 ba3d f8df c13d
000000f0: 646f 3abb 358e fd3d 38b6 06bd bfa0 e63c
00000100: 48b7 06bd 0fde 98bd 44a1 72bd e350 083d
00000110: 90b9 36bc 6d82 8abd b82e 82bc 9057 1c3d
00000120: cbdc 93bd 64b3 af3d cde1 d0bd ce8f 423c
00000130: 6664 cbbd 782b d2bd e067 7ebc d567 f93d
00000140: f8e6 0a3e bea2 823d a312 ea3d 2cf1 8bbd
00000150: 3f43 9b3d 1aed bb3d c157 eebd 4a2e c4bd
00000160: 7970 8f3d 1096 b63c 0248 adbd 561d c4bd
00000170: c804 b93d 5722 963c 4d48 343c e04c dcbd
00000180: d49c e03d 383b a9bd 0c24 643d 3042 76bc
00000190: a078 853b b465 7b3d 2c64 08bd b8a3 0fbd
000001a0: 3e14 cc3d f02a c4bd 2cd8 633d d821 04bd
000001b0: 4c13 2bbd ec5e ab3d 78e0 ac3c 0057 eebd
000001c0: 7cc4 e43d 500e 7ebd ec4e dd3d 30b0 20bd
000001d0: 289c f93d 740a 173d 80de c5bb 8472 433d
000001e0: 40bf 7ebb 94f1 7dbd ca08 8c3d f20b a63d
000001f0: 1049 80bc 74cc f03d 600f 023c 0263 87bd
00000200: cc81 8bbd 883e ac3d a067 4fbd 04b1 a13d
00000210: 40ad f8bd 6018 8d3b d0e1 b0bd 4c9e 353d
00000220: 42e7 cf3d 647a 493d 0c0a 30bd 0628 f0bd
00000230: f095 72bd 3cfe 96bd 7875 f43d 4aa4 89bd
00000240: 70f7 453d 1082 cd3d cc95 383d 36a4 e0bd
00000250: f0a4 68bc ecf5 17bd a4f1 a43d 501c 40bc
00000260: a00a d8bb f0ba e33d 50ac f33c 0457 6d3d
00000270: 48d1 24bd d66a a73d 583b 933c c0b1 cdbc
00000280: a056 c53c 5282 c9bd 209c 963b 54cf 6a3d
00000290: fcb6 efbd 6afb 87bd b663 a03d 40c7 393b
000002a0: e084 8bbb f0fe 503c b0cb 65bd 36b1 d33d
000002b0: 9010 4bbc 9c6c 3abd 7ac1 863d c014 d5bd
000002c0: 60e1 bcbc 206a 4e3c 34e5 1ebd 4254 8b3d
000002d0: b09f dabd 389b 13bd 4831 57bd a2e2 ec3d
000002e0: e454 4c3d 6cf7 bebd e06e 463d 80ba 2dbb
000002f0: 5e59 ea3d fe46 8d3d d682 95bd 2032 e43d
00000300: e025 b7bc a82c e9bc 281a 193d ba56 fe3d
00000310: 387c 1a3d 4c01 f7bd 7871 23bd 4062 ee3d
00000320: b474 34bd 1052 76bd e20d ccbd be50 8dbd
00000330: 7ef7 8bbd 108f f43c 9c8e 4c3d ee51 f43d
00000340: 3601 a83d 0017 f23a 4c0f 8a3d 8a53 923d
00000350: 70ce dcbd 262d 813d 0a1f afbd 00b0 c53d
00000360: e4b0 5ebd b077 d43c 0055 aeba fc89 6d3d
00000370: f045 9f3c 7cb3 b9bd 0c68 4f3d 7203 973d
00000380: 6ede 67bd 9d38 94bd b651 aebd c81d 79bd
00000390: 101a 81bc e869 903c 001e 67ba 51e8 cfbc
000003a0: bfff af3d ea6d 743c a6a5 94bd 2fd0 cdbc
000003b0: e682 96bd 585a 13bd 6a7c f1bd deb4 f83c
000003c0: cf06 b9bd 9a39 6a3d c45e af3d 0a72 bebd
000003d0: 8265 6cbd a8b1 b8bd 44a3 083d 9023 c63c
000003e0: c28c 6abd b4a4 ac3d e873 543d 4c4e e7bd
000003f0: 2747 3aba cabc 42bd f589 54bc 3349 a03d

lstm.weight_hh_l0 f4 [256, 64]
-0.047345936 0.0047770143 -0.07651897 0.07217352 -0.08214073 -0.07089318 -0.05089557 -0.02295506
0.015447408 -0.1178374 -0.045713842 -0.05425042 -0.025391683 -0.0071160644 0.005856991 0.063826665
-0.071163386 0.0027272701 0.11359404 0.016034365 -0.092856735 0.08555743 -0.11092804 0.050804213
0.10348828 0.015666202 0.0670481 0.099188015 0.057076976 -0.037551716 0.02717942 0.10110189
0.029308334 -0.099344045 0.1087707 0.121138036 0.07253766 0.067954525 0.07023057 -0.07589392
-0.037519053 0.054025844 0.031836197 0.053118184 -0.0023658276 -0.120461956 0.059249595 -0.0786237
-0.10329649 0.12361656 0.055103377 0.062122732 -0.0547664 0.046063766 0.010623515 0.08526407
0.014622077 0.111722544 -0.02927731 0.115351304 0.12379524 0.014785022 -0.09164891 4.8950315e-05
0.099498585 -0.06698235 -0.033237595 0.0452006 0.0077480753 0.11750524 0.020588756 -0.0009559096
0.034429405 -0.025711432 -0.11507614 -0.04384318 -0.11331335 0.091460526 0.007563129 -0.0030956988
0.008975557 -0.06413685 -0.066712916 -0.019132808 0.03782028 -0.046887107 -0.05715238 0.0635621
-0.021450343 0.070422366 0.10384221 0.11748831 -0.11867921 0.030789206 -0.09801327 0.026676698
0.017383277 -0.054103076 0.019450082 -0.039186433 0.08807718 -0.020325826 0.102589495 0.10600488
0.027912855 0.0036597492 -0.056575343 -0.06672103 0.08427581 0.08248994 -0.0024317084 0.12252865
0.080890074 0.10317165 -0.0027826265 0.017868131 -0.11238673 -0.11421336 0.039758142 -0.07534924
0.112850085 -0.11668704 -0.10347803 -0.10260776 0.10225652 -0.100505255 -0.10719703 0.036978442
-0.025213197 -0.11228709 0.09297413 0.09059684 0.09309109 0.07846677 -0.09690848 -0.060106494
-0.044702318 -0.12156385 0.087353736 -0.050585106 0.042903394 -0.06356266 0.11201443 0.08090138
0.09344763 0.066260405 0.11181408 0.040868685 0.021360546 -0.021004178 0.10834643 -0.12503465
0.09645813 -0.011827141 -0.015040142 -0.08725614 -0.061834168 0.030760221 -0.050936088 0.051683385
0.017609492 -0.10132798 0.061142005 -0.055036753 -0.04073477 -0.05318573 0.0561546 -0.11607693
-0.09008442 0.043534797 -0.037874416 -0.016953595 -0.11231072 0.0075974925 0.051645998 -0.04069863
0.016318804 0.0107278 -0.019287921 0.100822836 0.03218995 0.023759022 -0.010658177 -0.0026196986
0.07154959 0.00042401714 0.02828595 0.10144465 0.09280956 -0.050294776 -0.102356225 0.026158845
-0.085374355 -0.12431742 0.085836545 -0.10360214 0.123379186 -0.11515777 -0.10177991 0.07186657
0.009645104 -0.054482207 0.0474464 -0.08121611 -0.06889723 -0.12038119 -0.064028904 -0.10736458
0.10711065 -0.054340452 0.02120839 -0.056183174 -0.028637469 0.09131423 0.025439695 0.06035234
0.04084313 -0.10187748 0.07506944 0.10127777 0.037356853 0.09957422 -0.05955933 -0.08178361
-0.10040012 -0.019764796 -0.012361944 -0.0710489 -0.042748526 -0.04025507 0.1205537 -0.008926317
0.10133712 0.012041062 0.04454194 0.07203263 -0.11505291 -0.05634357 -0.094998926 0.12143326
0.045871407 -0.052391246 -0.09426451 0.06922145 0.029015169 -0.061496273 -0.09071821 -0.0652349
0.030439332 -0.10524358 -0.013190389 0.07419266 0.06676628 0.013490796 0.013280734 0.029206604
00000000: d0ed 41bd 8088 9c3b fab5 9cbd b6cf 933d
00000010: 6639 a8bd 7230 91bd e077 50bd 400c bcbc
00000020: 2017 7d3c bc54 f1bd 703e 3bbd b035 5ebd
00000030: 3802 d0bc e02d e9bb 00ec bf3b 8eb7 823d
00000040: 1cbe 91bd 00bc 323b fea3 e83d 805a 833c
00000050: ac2b bebd bc38 af3d 3e2e e3bd 1418 503d
00000060: aaf1 d33d 6856 803c 8450 893d 1623 cb3d
00000070: 8cc9 693d d4cf 19bd 60a7 de3c 820e cf3d
00000080: 0818 f03c e474 cbbd 2cc3 de3d 3817 f83d
00000090: a08e 943d be2b 8b3d 0cd5 8f3d 466e 9bbd
000000a0: 94ad 19bd 344a 5d3d ac66 023d 7492 593d
000000b0: 000c 1bbb c2b4 f6bd b4af 723d 7605 a1bd
000000c0: 1c8d d3bd ae2a fd3d 14b4 613d 6874 7e3d
000000d0: bc52 60bd 5cad 3c3d 400e 2e3c ee9e ae3d
000000e0: 7091 6f3c cace e43d f8d6 efbc 4e3d ec3d
000000f0: 5c88 fd3d e03c 723c 6cb2 bbbd 0050 4d38
00000100: eac5 cb3d 0b2e 89bd 2524 08bd 4424 393d
00000110: 91e3 fd3b 96a6 f03d c0a9 a83c 0296 7aba
00000120: d905 0d3d c8a0 d2bc 0aad ebbd e894 33bd
00000130: d410 e8bd a84f bb3d 20d4 f73b 35e1 4abb
00000140: 370e 133c 2e5a 83bd c8a0 88bd 68bc 9cbc
00000150: 70e9 1a3d b20c 40bd 9d18 6abd d92c 823d
00000160: a1b8 afbc 9a39 903d 39ab d43d b69d f03d
00000170: 160e f3bd a539 fc3c 2ebb c8bd 1789 da3c
00000180: 6067 8e3c 309b 5dbd c755 9f3c f481 20bd
00000190: cf61 b43d 5982 a6bc 711a d23d 1619 d93d
000001a0: 80a9 e43c 67d8 6f3b 8cbb 67bd 09a5 88bd
000001b0: cc98 ac3d 7cf0 a83d 4c5d 1fbb 4df0 fa3d
000001c0: b2a9 a53d a84b d33d ba5c 36bb 3060 923c
000001d0: 042b e6bd b2e8 e9bd 6fd9 223d b450 9abd
000001e0: f21d e73d 9df9 eebd 4aec d3bd 0424 d2bd
000001f0: de6b d13d b3d5 cdbd 1e8a dbbd b576 173d
00000200: e88b cebc c6f6 e5bd 3869 be3d d68a b93d
00000210: 8ba6 be3d 30b3 a03d f477 c6bd 3a32 76bd
00000220: c719 37bd 78f6 f8bd 84e6 b23d 5432 4fbd
00000230: 78bb 2f3d 242d 82bd d267 e53d 9faf a53d
00000240: 7961 bf3d 89b3 873d c8fe e43d ec65 273d
00000250: 50fc ae3c f410 acbc bce4 dd3d 1509 00be
00000260: d78b c53d a0c6 41bc ee6a 76bc 59b3 b2bd
00000270: d345 7dbd dcfc fb3c 5ca2 50bd f5b1 533d
00000280: c841 903c 0b85 cfbd 0a70 7a3d 386e 61bd
00000290: 81d9 26bd 48d9 59bd 5e02 663d beb9 edbd
000002a0: 2e7e b8bd 8b51 323d 3422 1bbd 44e2 8abc
000002b0: 2a03 e6bd 63f4 f83b c18a 533d 9bb3 26bd
000002c0: 03af 853c a8c3 2f3c b401 9ebc 347c ce3d
000002d0: 9cd9 033d 48a2 c23c a29f 2ebc 40af 2bbb
000002e0: 9788 923d 9e4e de39 f0b7 e73c 36c2 cf3d
000002f0: f012 be3d e501 4ebd 24a0 d1bd 134b d63c
00000300: c0d8 aebd 229a febd 12cb af3d 5c2d d4bd
00000310: 3aae fc3d d6d7 ebbd fc71 d0bd c82e 933d
00000320: 8006 1e3c bc28 5fbd 2857 423d a254 a6bd
00000330: fe19 8dbd 6a8a f6bd 9621 83bd f6e1 dbbd
00000340: d45c db3d 1894 5ebd 38bd ad3c 5420 66bd
00000350: 2099 eabc f402 bb3d e866 d03c 0434 773d
00000360: 204b 273d 24a5 d0bd 02be 993d b86a cf3d
00000370: 8003 193d 92ed cb3d 7cf4 73bd 2a7e a7bd
00000380: 949e cdbd c8e9 a1bc c089 4abc 1682 91bd
00000390: 1419 2fbd 80e2 24bd dce4 f63d b03f 12bc
000003a0: d689 cf3d e047 453c 9c71 363d d885 933d
000003b0: dca0 ebbd 84c8 66bd cc8e c2bd 00b2 f83d
000003c0: a8e3 3b3d 3498 56bd c00d c1bd fac3 8d3d
000003d0: 38b1 ed3c 84e3 7bbd 78ca b9bd e099 85bd
000003e0: e85b f93c f289 d7bd 801c 58bc 52f2 973d
000003f0: c2bc 883d 8008 5d3c 7097 593c b042 ef3c

lstm.bias_ih_l0 f4 [256]
0.025195122 -0.0022713405 0.066261604 0.12106778 -0.07968505 0.02249448 -0.033526123 0.035969954
0.092220485 -0.046999663 0.056738824 0.06101525 -0.057991356 0.025703486 0.089196905 -0.09698051
-0.053595975 0.06353344 -0.03319769 -0.045638353 -0.0038377047 -0.114866465 -0.05767452 0.06842738
-0.119333014 -0.009945422 -0.052175596 0.038446948 0.021603199 -0.0074555045 0.1174459 -0.07654877
0.09289692 -0.08077845 0.05700717 -0.09601444 0.11076931 0.12280772 0.033209525 0.078874566
-0.0725093 -0.017197875 -0.11636256 0.11494711 -0.052417606 -0.031579275 0.11811666 -0.11069578
-0.094692536 0.052640513 0.023436 -0.07771656 -0.11370654 -0.09555568 -0.043849856 0.10206801
-0.071901925 -0.08659383 -0.03551735 0.075274214 -0.08610731 0.06962297 0.0035096705 0.029086232
-0.08970761 0.055971563 0.049984574 -0.04525754 0.08549817 0.008221254 -0.07749483 -0.110321715
-0.0107686175 -0.096213594 -0.029307276 0.04751198 -0.006680399 0.11816467 -0.114203095 -0.04478468
0.083118945 0.10476844 -0.06537785 -0.11501254 -0.10163957 0.07848278 0.13517553 -0.10247365
-0.03664082 -0.043103278 0.07116117 0.05883336 -0.107112296 -0.0950722 -0.08818889 0.11460177
-0.11978714 -0.09645112 0.034633227 -0.09861264 -0.0045298976 0.06105844 -0.03295587 -0.055453
0.08578622 -0.086064726 -0.03384359 -0.10107069 -0.10582997 -0.06643584 0.12912278 0.103450745
0.0716162 -0.07827792 -0.05043106 -0.093604624 0.009655327 -0.0033652186 0.11032985 0.08691388
0.08975648 -0.007673517 0.107846856 -0.075526536 0.11534383 0.099063456 -0.09350364 0.07027796
0.0014516264 0.020921797 -0.0051773344 -0.08298361 0.072658874 0.022255152 -0.119807065 -0.0809425
-0.009457871 -0.094854936 -0.018139541 0.10176596 0.1152685 -0.057557702 0.117305204 -0.06035946
-0.05145659 0.028772905 0.11589286 -0.07125534 0.024804294 0.12632047 0.10981153 0.038094535
0.051981762 0.00073871017 -0.0340189 0.11229572 0.078400545 0.09694214 -0.031505153 0.120408654
0.002086416 0.06293836 -0.07689406 0.07105568 -0.0739846 -0.07201037 0.05987908 -0.060554832
-0.09468615 0.06568436 0.018790975 0.116256036 0.038768947 0.038946528 -0.061740357 -0.09941561
0.06789394 -0.012448654 -0.057805806 -0.10048024 -0.01542896 -0.055811852 0.087699294 -0.08768521
-0.08204747 0.0072125047 -0.042749792 -0.110789984 0.08260523 0.08093068 -0.12451126 0.091189146
-0.029130638 -0.0017995834 -0.08877765 0.07284585 0.04642757 -0.05743721 -0.04355672 -0.072255135
-0.0838415 -0.074722484 0.10693456 -0.09356493 -0.06456573 0.01203756 0.0045067817 0.13339233
-0.0736352 0.118608505 -0.09676539 -0.08414735 0.12376548 0.063729405 -0.050387073 -0.0763164
-0.057539046 -0.07180475 -0.056997597 0.122470975 -0.08043198 -0.09463565 0.09102401 -0.065152705
0.10613319 -0.09616321 0.07139364 -0.08773236 -0.115575925 -0.054673 0.037211396 0.05705866
-0.04990527 0.060169443 -0.072502196 -0.05494929 0.05910404 0.08888342 0.11805295 -0.1000183
-0.084363446 0.087010086 -0.076774225 -0.08715819 -0.07873133 0.046820223 -0.096509725 -0.08046444
0.0059767743 0.0279988 0.028059945 -0.0009772778 0.08145376 -0.07078922 -0.004318461 -0.022203136
00000000: 0066 ce3c c5da 14bb 2ab4 873d 62f2 f73d
00000010: ea31 a3bd 5846 b83c b052 09bd 3b55 133d
00000020: 18de bc3d b882 40bd f866 683d 20eb 793d
00000030: 5888 6dbd 1e90 d23c deac b63d b89d c6bd
00000040: 7487 5bbd d21d 823d 4dfa 07bd 48ef 3abd
00000050: 0082 7bbb 1c3f ebbd 1e3c 6cbd a723 8c3d
00000060: de64 f4bd 20f2 22bc 14b6 55bd 8c7a 1d3d
00000070: 31f9 b03c 4e4d f4bb 7a87 f03d 9ac5 9cbd
00000080: be40 be3d 2c6f a5bd 5a80 693d 38a3 c4bd
00000090: 05db e23d 9d82 fb3d b606 083d fd88 a13d
000000a0: c27f 94bd 8fe2 8cbc 7e4f eebd 6469 eb3d
000000b0: d8b3 56bd 4559 01bd 26e7 f13d 78b4 e2bd
000000c0: 29ee c1bd 949d 573d dbfc bf3c dc29 9fbd
000000d0: f9de e8bd b2b2 c3bd e89b 33bd 0809 d13d
000000e0: 5141 93bd 1b58 b1bd a47a 11bd 5e29 9a3d
000000f0: 0859 b0bd 7d96 8e3d 8002 663b 4046 ee3c
00000100: a0b8 b7bd 7042 653d a0bc 4c3d f85f 39bd
00000110: aa19 af3d 70b2 063c 9cb5 9ebd 5af0 e1bd
00000120: db6e 30bc a20b c5bd d015 f0bc ec9b 423d
00000130: 40e7 dabb 5200 f23d 50e3 e9bd 2470 37bd
00000140: 443a aa3d d690 d63d d2e4 85bd b28b ebbd
00000150: 6828 d0bd 94bb a03d 746b 0a3e b4dd d1bd
00000160: af14 16bd 108d 30bd f3bc 913d 40fb 703d
00000170: b15d dbbd 37b5 c2bd 609c b4bd 55b4 ea3d
00000180: f652 f5bd 2a88 c5bd 92db 0d3d 6cf5 c9bd
00000190: 896f 94bb 6a18 7a3d bcfc 06bd af22 63bd
000001a0: b0b0 af3d b442 b0bd 949f 0abd 26fe cebd
000001b0: 62bd d8bd 840f 88bd c338 043e fcdd d33d
000001c0: 84ab 923d 2d50 a0bd cd90 4ebd c8b3 bfbd
000001d0: 6031 1e3c 008b 5cbb 9ef4 e13d e8ff b13d
000001e0: 3fd2 b73d 2072 fbbb d0de dc3d a8ad 9abd
000001f0: 6339 ec3d c8e1 ca3d d67e bfbd e4ed 8f3d
00000200: 8044 be3a 3064 ab3c a1a6 a9bb 50f3 a9bd
00000210: 2dce 943d 7050 b63c 685d f5bd 2ec5 a5bd
00000220: 30f5 1abc 4e43 c2bd 6099 94bc ac6a d03d
00000230: e411 ec3d a0c1 6bbd b63d f03d 7b3b 77bd
00000240: 25c4 52bd 28b5 eb3c 3c59 ed3d 52ee 91bd
00000250: 6032 cb3c 275a 013e dee4 e03d 0409 1c3d
00000260: d4ea 543d 00a6 413a 6757 0bbd 4cfb e53d
00000270: 7790 a03d 9a89 c63d 8c0b 01bd d098 f63d
00000280: 40bc 083b d4e5 803d a27a 9dbd a485 913d
00000290: 3d85 97bd 2c7a 93bd c443 753d 5808 78bd
000002a0: d0ea c1bd 8685 863d 88ef 993c a517 ee3d
000002b0: 30cc 1e3d 6586 1f3d 75e3 7cbd 699a cbbd
000002c0: fa0b 8b3d 70f5 4bbc c8c5 6cbd 96c8 cdbd
000002d0: c0c9 7cbc f89a 64bd b09b b33d 4e94 b3bd
000002e0: 8108 a8bd e056 ec3b 681a 2fbd dce5 e2bd
000002f0: ee2c a93d fcbe a53d c2ff febd 60c1 ba3d
00000300: 60a3 eebc 00e0 ebba 0ed1 b5bd 3430 953d
00000310: d62a 3e3d 4843 6bbd 8868 32bd 80fa 93bd
00000320: 18b5 abbd 1a08 99bd 8200 db3d f89e bfbd
00000330: 0a3b 84bd 3039 453c a0ad 933b 0098 083e
00000340: 0dce 96bd 04e9 f23d ef2c c6bd 7255 acbd
00000350: c278 fd3d 9084 823d ad62 4ebd c64b 9cbd
00000360: 10ae 6bbd 5e0e 93bd 5076 69bd 10d2 fa3d
00000370: 86b9 a4bd 56d0 c1bd cc6a ba3d c86e 85bd
00000380: 5c5c d93d 38f1 c4bd d436 923d 06ad b3bd
00000390: 12b3 ecbd ccf0 5fbd fa6a 183d 57b6 693d
000003a0: 7869 4cbd 3c74 763d 087c 94bd 8212 61bd
000003b0: 1417 723d 8308 b63d bfc5 f13d 65d6 ccbd
000003c0: bec6 acbd 5832 b23d ce3b 9dbd fe7f b2bd
000003d0: e43d a1bd 90c6 3f3d e4a6 c5bd 8aca a4bd
000003e0: d1d8 c33b bd5d e53c f8dd e53c 0018 80ba
000003f0: 3bd1 a63d f0f9 90bd e081 8dbb 5ae3 b5bc

lstm.bias_hh_l0 f4 [256]
-0.01350899 -0.07734286 0.08435131 0.013992846 0.05944982 -0.02003038 -0.06934017 0.032409858
0.0813797 0.113743186 0.04829569 -0.05083412 -0.11324252 0.092676766 0.058071807 0.12660728
-0.11397196 -0.05189745 -0.10600239 0.019124523 -0.023437232 0.09571591 -0.0669522 0.03409617
-0.118779376 -0.036575913 -0.095880136 0.03996469 0.12387006 -0.0074888235 0.019154295 -0.018814085
0.0021459907 -0.023853317 0.042653643 0.03997828 0.119475655 0.086075746 0.06709741 -0.10192386
-0.081861466 -0.0749525 -0.02353251 0.0057638288 0.10321055 -0.09720347 0.033101037 -0.011897459
0.016777672 0.029314145 0.06833454 -0.009416342 -0.016466731 0.014821738 -0.08905828 0.074198484
0.092115216 -0.0789006 -0.0051492453 -0.09951119 -0.07971184 0.09254619 0.1019087 0.09622483
0.011840597 0.012788221 0.049342632 -0.021731228 0.04256156 0.1024767 0.075588286 -0.07141878
-0.103067815 -0.07191533 -0.09488456 -0.06911294 -0.09272522 -0.089822516 0.0022851527 0.11405835
-0.020271942 -0.10240972 0.12091333 -0.060377896 -0.119653866 0.09149185 -0.020970276 -0.103850335
-0.026357193 -0.07688768 0.01631979 0.025066525 0.07145481 0.12696253 -0.10856266 0.06250954
0.0016308725 -0.0073583126 -0.018731687 -0.124109074 0.11627684 0.101521224 -0.08505106 -0.027231319
0.049365222 0.010504723 0.013021961 0.057367444 -0.04925424 -0.08622934 -0.10017714 0.05579801
0.066909306 -0.020235313 -0.06280621 -0.03691414 -0.090591475 -0.07150069 0.12302609 -0.107677504
0.1127438 0.056201905 0.039438322 0.09469272 0.012219103 0.0031965077 -0.032858312 0.12387805
0.0019690543 -0.0851222 -0.10826389 0.0040989965 -0.014296539 0.044747382 0.07096867 0.0057940334
-0.033721924 0.10002567 0.06668252 0.11828244 0.07494718 0.07929216 0.073398724 -0.09795593
-0.066492274 -0.048278168 0.04228988 -0.07340245 0.0079181045 0.03332178 0.08237083 0.08481918
0.037607074 -0.037076607 0.041352026 -0.06282057 0.090971746 -0.07148984 0.09546825 0.11630143
0.09595263 0.10074328 0.0027803928 0.095213756 -0.076880865 -0.11803888 -0.08283408 -0.11753985
0.039269537 -0.040581107 -0.010927573 -0.03822146 -0.038257524 -0.1225606 -0.11195056 0.119320326
-0.12468441 -0.062628046 -0.053999588 -0.11525875 -0.07425062 -0.012455255 0.012284797 0.09833144
0.09248134 0.049409837 -0.050409213 -0.116763145 0.014040578 -0.110275984 -0.12049276 -0.017472833
-0.06582044 0.11819865 -0.030105537 0.09704526 0.101607725 0.033140376 -0.022825092 0.105568334
-0.05230685 0.01069814 0.0025208741 -0.10704847 0.0850411 0.043574125 0.008120999 -0.028973453
-0.036310546 0.121355 -0.04044698 -0.005811617 0.11575486 0.12428939 0.09234832 0.057840496
0.03923577 -0.02189292 0.049882337 -0.057970304 -0.05424968 -0.034918338 -0.101708144 -0.024349958
0.066917524 0.01750879 0.02734162 0.097189814 -0.058113236 -0.03982067 0.013562721 0.072726645
0.04371877 -0.058599003 0.10935004 -0.020347515 0.10218553 -0.05362223 0.072080456 -0.01072659
0.016265357 0.1038115 0.02300694 0.014339894 -0.037840858 0.051464066 -0.025870577 -0.0040394366
0.021736804 0.085658975 0.018856853 -0.07712546 -0.01653397 0.0504669 -0.11165275 -0.04250121
00000000: d054 5dbc ef65 9ebd 61c0 ac3d 4042 653c
00000010: a881 733d c016 a4bc 3802 8ebd 33c0 043d
00000020: 66aa a63d 30f2 e83d b4d1 453d 7037 50bd
00000030: b2eb e7bd 51cd bd3d b4dc 6d3d 57a5 013e
00000040: 226a e9bd 6c92 54bd c817 d9bd 08ab 9c3c
00000050: 70ff bfbc b406 c43d 3c1e 89bd 6da8 0b3d
00000060: 9a42 f3bd a0d0 15bd ce5c c4bd 04b2 233d
00000070: 96af fd3d ce64 f5bb 78e9 9c3c ff1f 9abc
00000080: c0a3 0c3b 0868 c3bc 96b5 2e3d 44c0 233d
00000090: a7af f43d 7b48 b03d 5e6a 893d 75bd d0bd
000000a0: fca6 a7bd b280 99bd 40c7 c0bc 80de bc3b
000000b0: 0e60 d33d 9d12 c7bd f494 073d 8fed 42bc
000000c0: 5471 893c 3824 f03c fbf2 8b3d 0047 1abc
000000d0: 3de5 86bc e0d6 723c 3064 b6bd 60f5 973d
000000e0: e7a6 bc3d a396 a1bd 00bb a8bb 86cc cbbd
000000f0: f63f a3bd db88 bd3d 82b5 d03d 8611 c53d
00000100: 10ff 413c b085 513c 801b 4a3d b005 b2bc
00000110: 0855 2e3d 4edf d13d 08ce 9a3d 0244 92bd
00000120: 3815 d3bd 5848 93bd d652 c2bd 168b 8dbd
00000130: b8e6 bdbd def4 b7bd 80c2 153b 6d97 e93d
00000140: 5811 a6bc 30bc d1bd 68a1 f73d d04e 77bd
00000150: 160d f5bd 1460 bb3d dbc9 abbc 7caf d4bd
00000160: 0aeb d7bc 4a77 9dbd 15b1 853c 5058 cd3c
00000170: e656 923d 7702 023e 1a56 debd 0005 803d
00000180: 00c3 d53a 001e f1bb 3273 99bc e62c febd
00000190: 8d22 ee3d 5cea cf3d 402f aebd 3714 dfbc
000001a0: 3033 4a3d 001c 2c3c 105a 553c 20fa 6a3d
000001b0: d0be 49bd 0299 b0bd ac29 cdbd 748c 643d
000001c0: bf07 893d 87c4 a5bc 8ba0 80bd 4833 17bd
000001d0: 0688 b9bd f46e 92bd 1af5 fb3d 0686 dcbd
000001e0: 39e6 e63d f833 663d 148a 213d 42ee c13d
000001f0: a232 483c 807c 513b 7096 06bd c6b3 fd3d
00000200: 400b 013b 8c54 aebd 75b9 ddbd e050 863b
00000210: 083c 6abc 0849 373d 0658 913d e0db bd3b
00000220: 0020 0abd 42da cc3d d890 883d 103e f23d
00000230: e87d 993d ee63 a23d 1252 963d 1e9d c8bd
00000240: 1a2d 88bd 54bf 45bd 2738 2d3d 0654 96bd
00000250: f0ba 013c 6b7c 083d 0ab2 a83d aeb5 ad3d
00000260: e009 1a3d a4dd 17bd be60 293d 12a8 80bd
00000270: 654f ba3d 4469 92bd dc84 c33d 722f ee3d
00000280: d082 c43d 7e52 ce3d 4037 363b 6eff c23d
00000290: b773 9dbd 5ebe f1bd eaa4 a9bd bcb8 f0bd
000002a0: 18d9 203d 6038 26bd 9009 33bc 1b8e 1cbd
000002b0: ecb3 1cbd 0d01 fbbd 5646 e5bd 375e f43d
000002c0: 8a5a ffbd 2243 80bd ac2e 5dbd c80c ecbd
000002d0: b610 98bd 2011 4cbc 2c46 493c fe61 c93d
000002e0: db66 bd3d f861 4a3d e479 4ebd 8421 efbd
000002f0: 740a 663c 60d8 e1bd e8c4 f6bd 3023 8fbc
00000300: decc 86bd 2212 f23d e39f f6bc aabf c63d
00000310: b617 d03d 34be 073d b0fb babc 3634 d83d
00000320: b53f 56bd 4047 2f3c 4035 253b 3a3c dbbd
00000330: 072a ae3d c87a 323d f00d 053c bc59 edbc
00000340: 5eba 14bd f888 f83d bcab 25bd 606f bebb
00000350: e210 ed3d 708b fe3d 1e21 bd3d 28ea 6c3d
00000360: b0b5 203d c858 b3bc 6c51 4c3d 4572 6dbd
00000370: ea34 5ebd 8806 0fbd 5c4c d0bd 9079 c7bc
00000380: 0e0c 893d 986e 8f3c 88fb df3c 740b c73d
00000390: 2508 6ebd 001b 23bd 2d36 5e3c b5f1 943d
000003a0: 7412 333d 8205 70bd eaf2 df3d d5af a6bc
000003b0: a646 d13d fca2 5bbd eb9e 933d 94be 2fbc
000003c0: ed3e 853c 209b d43d 0d79 bc3c e0f1 6a3c
000003d0: 04ff 1abd fccb 523d 88ee d3bc 405d 84bb
000003e0: 6211 b23c f96d af3d b079 9a3c f4f3 9dbd
000003f0: 4072 87bc 61b6 4e3d 32aa e4bd c015 2ebd

attention_layer.weight f4 [32, 64]
-0.031265542 0.2775546 0.28830138 -0.014079884 -0.05655799 -0.0677491 -0.075096324 0.23025626
0.2657745 -0.05842617 0.003942877 -0.1016389 0.008554035 0.37834358 -0.105875865 0.39980286
-0.116487406 -0.20986374 0.08919941 -0.021390408 0.044556543 0.24658713 0.0587367 -0.31569153
-0.27692956 0.025600225 0.05427167 0.09894326 -0.39521858 -0.27729368 -0.07295261 0.09736553
0.081876636 -0.12176143 -0.09037375 -0.07183312 0.08043424 -0.17946295 -0.0702891 0.073906034
-0.005999163 0.010294154 -0.34746894 -0.056765728 0.04227656 0.17453068 -0.18023439 0.1843203
-0.18734476 0.04609177 0.4052862 -0.09842649 0.4509306 -0.0405982 -0.19390436 0.06479399
0.23456532 -0.053717468 -0.061969414 0.0009191632 0.22685409 -0.21974032 -0.11698483 0.07421093
-0.08201434 0.36423078 0.30740482 -0.046724483 -0.05561387 -0.02041024 0.024969637 0.024656786
0.181527 0.12477893 0.00626491 0.12106748 0.07678089 0.48143587 0.10504769 0.29437354
0.03955439 -0.10427729 -0.089212276 0.044188485 0.0149382055 0.09078253 0.10739162 -0.29670516
-0.37972754 -0.012507245 0.0154726235 0.23252901 -0.3974962 -0.40009576 0.028848695 0.30485526
0.11698519 -0.15313251 -0.152381 -0.033105977 0.16242762 -0.17197122 0.003049913 0.20448235
-0.09457427 -0.03828292 -0.52506095 0.07148495 0.08746256 0.13808312 -0.15360181 0.31080675
-0.09836257 0.07527144 0.17688714 0.054902345 0.49071246 0.11383535 -0.0031907042 -0.08259235
0.13002925 0.014313562 0.07304101 -0.026035368 0.20827183 -0.13848734 0.053290978 0.13664684
-0.025688902 -0.10359833 -0.012896032 -0.108655244 0.10977622 0.026537701 0.053068683 0.102422714
-0.058263328 0.011737198 -0.04371701 0.059809834 0.060718395 0.0485471 -0.005329132 0.051774174
-0.07003359 -0.073704585 -0.12009459 0.06986542 -0.11643687 -0.07240818 -0.027461343 0.009208931
0.076430716 0.11517672 -0.037482258 -0.023122473 -0.08228375 -0.09088544 -0.049447443 -0.04734457
0.08570507 -0.028733678 0.057166435 -0.10001071 -0.06966225 0.036547918 -0.047562428 0.085873626
-0.014746562 0.13450375 0.07015556 0.028435927 -0.11511126 0.06119165 -0.06961999 0.09939157
0.09086941 -0.084221385 0.004460258 0.039742634 -0.128457 0.023490876 0.014923146 0.029748082
0.07797962 -0.04172174 -0.11563772 -0.08534145 -0.011746217 -0.002738268 -0.07810883 -0.046925843
0.060779333 -0.09901635 0.0779415 0.06537311 -0.018276585 -0.020378992 0.02909179 0.07581487
-0.025176257 -0.07052165 0.10651794 -0.024208918 0.05245213 0.0994135 0.025553241 0.11254631
-0.029994294 -0.06619269 0.052168045 0.11530042 0.12435959 0.10384307 0.012930961 -0.10478221
0.093069404 0.11686331 -0.09890706 -0.0053263274 0.016387949 -0.021858634 0.061976716 -0.067198135
-0.05381371 -0.102193475 -0.017852666 -0.06676759 -0.08560887 0.09484997 -0.015845286 -0.1106055
-0.07283436 0.051241957 -0.05245327 0.10194434 0.050378278 -0.073404536 -0.068862274 -0.065735966
-0.100751415 0.063796565 -0.10789711 0.06534588 -0.078118816 0.04123962 0.04506916 0.057321638
0.039878357 0.104257196 0.09140216 0.11181782 -0.05620355 -0.0694801 -0.017268881 -0.042665884
00000000: 4c10 00bd a31b 8e3e 3d9c 933e 50af 66bc
00000010: 5aa9 67bd 0ac0 8abd 1acc 99bd 4cc8 6b3e
00000020: 9813 883e 4850 6fbd 4033 813b 0e28 d0bd
00000030: 3926 0c3c 40b6 c13e 72d5 d8bd f6b2 cc3e
00000040: f390 eebd 85e6 56be 2eae b63d f03a afbc
00000050: ec80 363d 5681 7c3e e595 703d 52a2 a1be
00000060: b6c9 8dbe 90b7 d13c f84b 5e3d c4a2 ca3d
00000070: 175a cabe 70f9 8dbe 2e68 95bd 9467 c73d
00000080: f0ae a73d 0e5e f9bd df15 b9bd 3e1d 93bd
00000090: b5ba a43d 23c5 37be bbf3 8fbd 0c5c 973d
000000a0: a094 c4bb d0a8 283c 73e7 b1be 2e83 68bd
000000b0: 302a 2d3d 2cb8 323e 5d8f 38be 76be 3c3e
000000c0: 4ed7 3fbe b9ca 3c3d ac81 cf3e d493 c9bd
000000d0: 60e0 e63e 4c4a 26bd dd8e 46be b6b2 843d
000000e0: e431 703e d906 5cbd a4d3 7dbd 00f4 703a
000000f0: 704c 683e 9b03 61be be95 efbd e6fb 973d
00000100: 22f7 a7bd 757c ba3e 2a64 9d3e 2c62 3fbd
00000110: 5fcb 63bd 6033 a7bc 208d cc3c 07fd c93c
00000120: 37e2 393e 188c ff3d e049 cd3b 3af2 f73d
00000130: 4d3f 9d3d c37e f63e 3e23 d73d 21b8 963e
00000140: c903 223d 558f d5bd edb4 b6bd fcfe 343d
00000150: 60bf 743c 31ec b93d 23f0 db3d bde9 97be
00000160: a66b c2be 30eb 4cbc e380 7d3c 161c 6e3e
00000170: 9f84 cbbe 5ad9 ccbe 1954 ec3c fd15 9c3e
00000180: ee95 ef3d c5ce 1cbe c409 1cbe 229a 07bd
00000190: 6d53 263e 3919 30be 0de1 473b d263 513e
000001a0: 28b0 c1bd 8dce 1cbd 656a 06bf b466 923d
000001b0: 921f b33d a965 0d3e cb49 1dbe 1022 9f3e
000001c0: 5172 c9bd ea27 9a3d e721 353e 48e1 603d
000001d0: aa3e fb3e 8222 e93d 221b 51bb 2e26 a9bd
000001e0: 6326 053e 6e83 6a3c 8696 953d 2048 d5bc
000001f0: 3645 553e a0cf 0dbe a447 5a3d 26ed 0b3e
00000200: 8871 d2bc 5c2b d4bd e149 53bc a486 debd
00000210: 5bd2 e03d 9865 d93c 8c5e 593d 00c3 d13d
00000220: 87a5 6ebd 604d 403c 9c10 33bd 28fb 743d
00000230: dab3 783d 53d9 463d 00a0 aebb 2811 543d
00000240: c56d 8fbd 6ef2 96bd 27f4 f5bd 9a15 8f3d
00000250: 7476 eebd bd4a 94bd 9cf6 e0bc 0ee1 163c
00000260: b587 9c3d c6e1 eb3d ff86 19bd 576b bdbc
00000270: 6284 a8bd 2522 babd 6789 4abd 61ec 41bd
00000280: 2486 af3d e462 ebbc 5a27 6a3d 6ad2 ccbd
00000290: 15ab 8ebd 45b3 153d d2d0 42bd 83de af3d
000002a0: 909b 71bc 5abb 093e b8ad 8f3d 76f2 e83c
000002b0: 74bf ebbd 18a4 7a3d ed94 8ebd cf8d cb3d
000002c0: be19 ba3d 437c acbd 5b27 923b 2cc9 223d
000002d0: 3b8a 03be f06f c03c 3680 743c 40b2 f33c
000002e0: c7b3 9f3d 6ae4 2abd 78d3 ecbd 80c7 aebd
000002f0: 3473 40bc 8474 33bb 86f7 9fbd 5035 40bd
00000300: c0f3 783d 16c9 cabd cb9f 9f3d 56e2 853d
00000310: c7b8 95bc d8f1 a6bc e851 ee3c d444 9b3d
00000320: 703e cebc a86d 90bd 1426 da3d c851 c6bc
00000330: 0bd8 563d 4e99 cb3d 0855 d13c ae7e e63d
00000340: 98b6 f5bc 0890 87bd 29ae 553d a022 ec3d
00000350: 3eb0 fe3d adab d43d 62dc 533c 0e98 d6bd
00000360: 2c9b be3d 0856 ef3d c98f cabd 7988 aebb
00000370: 0540 863c e110 b3bc 4cdb 7d3d 2d9f 89bd
00000380: c46b 5cbd d04a d1bd c13f 92bc 72bd 88bd
00000390: b453 afbd b340 c23d f9cd 81bc 2385 e2bd
000003a0: 2e2a 95bd 16e3 513d 3dd9 56bd 32c8 d03d
000003b0: 7459 4e3d 1e55 96bd aa07 8dbd 94a0 86bd
000003c0: c256 cebd c6a7 823d 29f9 dcbd 10d4 853d
000003d0: c2fc 9fbd e0ea 283d 719a 383d 18ca 6a3d
000003e0: 7d57 233d cc84 d53d 0e31 bb3d be00 e53d
000003f0: b235 66bd 954b 8ebd 7877 8dbc 6cc2 2ebd

attention_layer.bias f4 [32]
0.10182513 0.11777771 0.038596883 -0.10377908 0.04140748 -0.03452226 0.031177985 0.07730343
0.03661755 -0.06920292 0.14678988 0.10035075 0.12034534 0.07093102 0.06985837 0.01516074
0.08633448 -0.01706031 0.13258365 0.019255456 -0.03056989 0.07260311 -0.0883118 -0.03201273
-0.0590275 0.15295376 0.12489987 -0.0050819656 0.037358753 0.1447289 0.03811991 0.013394356
00000000: b289 d03d 7135 f13d c417 1e3d 208a d4bd
00000010: e49a 293d 3767 0dbd f968 ff3c 4351 9e3d
00000020: 49fc 153d 43ba 8dbd 1650 163e b284 cd3d
00000030: 9e77 f63d 4844 913d e811 8f3d c164 783c
00000040: 22d0 b03d 10c2 8bbc 02c4 073e 9ebd 9d3c
00000050: b56d fabc f0b0 943d d1dc b4bd c81f 03bd
00000060: d2c6 71bd e99f 1c3e 81cb ff3d 9e86 a6bb
00000070: 7e05 193d d033 143e 9f23 1c3d 0074 5b3c

attention_score.weight f4 [1, 32]
0.51482695 0.59728074 -0.09697296 -0.05061526 -0.03589021 -0.17213076 0.05565004 0.51743805
0.48867956 0.09530414 -0.49693632 -0.515716 0.55218506 0.052139472 0.5397992 -0.40505806
-0.05272139 -0.046485797 -0.5764188 0.5799289 -0.13674985 0.13943319 -0.024813652 0.5263206
0.63132304 -0.37114853 0.6017085 0.030029668 -0.0782517 -0.5271583 -0.05596441 0.15161704
00000000: b3cb 033f 64e7 183f c299 c6bd f251 4fbd
00000010: 9d01 13bd 0c43 30be 4cf1 633d d276 043f
00000020: 3534 fa3e d12e c33d 706e febe f705 04bf
00000030: 005c 0d3f 3390 553d 4830 0a3f c563 cfbe
00000040: 62f2 57bd e467 3ebd 2f90 13bf 3876 143f
00000050: 2708 0cbe 93c7 0e3e 0046 cbbc f2bc 063f
00000060: 639e 213f 2e07 bebe 9109 1a3f c700 f63c
00000070: 6d42 a0bd d9f3 06bf f03a 65bd 7f41 1b3e

fc.weight f4 [260, 64]
-0.06442927 1.0336306 1.2791438 -0.04221812 -1.1001766 0.007999077 0.07180479 -0.123422176
1.0134097 -0.09159267 0.03212817 0.024496987 0.072004735 1.5719236 -0.06555164 -0.9690699
1.0408144 0.039124086 0.9863138 -0.035127535 -0.07984698 0.91102356 0.9579783 -1.3805184
0.8352855 0.09086834 -0.9162152 -0.058845956 -1.0372307 0.963345 0.11562708 1.0418022
-0.0034541339 0.03636084 -1.01549 0.093234345 1.1394057 -0.9254187 0.9425906 0.9095002
-0.07899584 -1.123611 -1.5001401 0.97638327 -0.03660533 -0.024566637 -1.050811 1.0963343
1.1993102 1.1255339 1.1634343 -0.048302308 1.2303771 -0.002567634 -1.1366824 -0.07283236
0.95023894 -0.96535885 -0.07459225 -0.07729696 -0.59990656 -1.032696 -0.074477345 -1.2750826
0.12110484 1.0345571 1.2843173 0.016401082 -1.0135134 0.036294803 0.055865765 -0.12730122
0.99678797 -0.01464583 -0.11742322 -0.06635831 0.0627556 1.4684029 -0.08426857 -1.1409137
1.0881861 0.18224692 1.1592246 -0.08926901 0.054792315 0.9307877 1.158882 -1.3104602
0.92528194 0.101238936 -1.037635 -0.18014047 -0.9343535 1.0613596 -0.09792569 1.035999
0.09099017 0.14284907 -1.2361606 -0.0584114 1.1448915 -0.9229426 1.0694007 0.9922503
0.1208749 -1.0073862 -1.3853117 0.8905725 -0.08689265 -0.06096986 -1.0236017 1.01529
1.0965306 1.0595738 0.979605 -0.021612495 1.1686783 -0.03436175 -0.9668394 -0.025450423
0.9206293 -1.1653963 0.042773932 -0.026164338 -0.47955886 -0.9534104 -0.043178186 -1.2687317
0.06986095 1.1944498 1.2193208 -0.09049526 -1.0709348 0.020414487 0.02511108 -0.036311477
1.1621035 -0.0824303 0.07823689 0.12044972 -0.05008812 1.3891072 0.112718076 -0.93706477
1.1551608 0.009343217 1.0447701 -0.12119846 -0.014681682 0.95971304 1.1494156 -1.339572
0.9856044 0.07491323 -0.9671637 -0.01414225 -1.0249348 1.0339965 -0.095578626 0.95215845
0.0040629357 0.18469396 -1.1260004 0.05871686 1.0719564 -1.1360916 1.157682 1.0660161
-0.020380452 -1.0939522 -1.5595355 0.9749186 -0.03874871 -0.0809525 -0.9378189 0.94884104
1.0980568 0.98453206 1.0272444 0.024256632 1.2318335 -0.054340214 -0.9033262 -0.030569121
0.92451805 -0.9912531 -0.026316807 -0.05709815 -0.4064571 -1.064115 -0.060435906 -1.1258211
-0.028994814 1.1827044 1.3856759 -0.0060471743 -1.0561329 0.0736372 0.07185379 -0.16305932
1.0821159 0.03509718 0.12400633 -0.07283594 -0.08407783 1.435794 -0.1233398 -1.0623271
1.192126 0.004039877 1.2029191 0.07152164 0.07813451 0.9453499 1.1104378 -1.2478504
1.0131943 -0.09304616 -0.97142255 -0.035817236 -1.0083479 1.1610463 0.0068229265 0.97536963
-0.08219458 -0.018962435 -1.1652962 0.099903144 1.0841461 -0.97875327 1.1026031 1.0478461
-0.038208604 -0.97383547 -1.5068401 1.0674419 0.060190603 -0.15750796 -1.109173 0.89893717
1.1909101 0.97341967 1.073022 0.015853435 1.3022702 -0.107390076 -1.0325149 -0.022701249
0.99367154 -1.1875619 -0.08646126 -0.029439077 -0.47747388 -0.93079144 -0.06532146 -1.1643083
00000000: 7ef3 83bd 024e 843f fcba a33f e8ec 2cbd
00000010: 96d2 8cbf 900e 033c 640e 933d c4c4 fcbd
00000020: 69b7 813f f094 bbbd d498 033d e8ad c83c
00000030: 3877 933d cb34 c93f f03f 86bd f714 78bf
00000040: 6839 853f 9440 203d 107f 7c3f e4e1 0fbd
00000050: d086 a3bd d738 693f 113e 753f d4b4 b0bf
00000060: 45d5 553f 2e19 ba3d 148d 6abf 7508 71bd
00000070: fac3 84bf c79d 763f e4cd ec3d c659 853f
00000080: c05e 62bb 1bef 143d 94fb 81bf a6f1 be3d
00000090: 0cd8 913f 3de8 6cbf 9e4d 713f 01d5 683f
000000a0: 92c8 a1bd 7cd2 8fbf 9704 c0bf 41f4 793f
000000b0: 78ef 15bd f93f c9bc fa80 86bf af54 8c3f
000000c0: ff82 993f 7f11 903f 6aeb 943f a4d8 45bd
000000d0: ff7c 9d3f c045 28bb cf7e 91bf 2229 95bd
000000e0: dc42 733f c221 77bf d2c3 98bd de4d 9ebd
000000f0: 7a93 19bf 622f 84bf 9487 98bd e835 a3bf
00000100: d005 f83d 5e6c 843f 8264 a43f 905b 863c
00000110: cfba 81bf dca9 143d 80d3 643d 405b 02be
00000120: 7f2d 7f3f 10f5 6fbc 967b f0bd dee6 87bd
00000130: 0286 803d a0f4 bb3f 0095 acbd 7609 92bf
00000140: af49 8b3f f09e 3a3e 7961 943f acd2 b6bd
00000150: e86d 603d 1a48 6e3f 3f56 943f 29bd a7bf
00000160: 47df 6c3f 5c56 cf3d 39d1 84bf be76 38be
00000170: ca31 6fbf a2da 873f 448d c8bd 9d9b 843f
00000180: 0e59 ba3d 0747 123e 833a 9ebf cb40 6fbd
00000190: ce8b 923f f745 6cbf 1fe2 883f 1e04 7e3f
000001a0: 428d f73d 08f2 80bf e551 b1bf 8ffc 633f
000001b0: c6f4 b1bd 88bb 79bd 6105 83bf 06f5 813f
000001c0: 1d5b 8c3f 1da0 873f 65c7 7a3f b00c b1bc
000001d0: 4097 953f e8be 0cbd c982 77bf 687d d0bc
000001e0: 5dae 6b3f b52b 95bf b833 2f3d 9856 d6bc
000001f0: bd88 f5be b412 74bf 9cdb 30bd cd65 a2bf
00000200: 4213 8f3d bbe3 983f b412 9c3f 9455 b9bd
00000210: 6414 89bf 483c a73c c0b5 cd3c 58bb 14bd
00000220: cfbf 943f 38d1 a8bd aa3a a03d 58ae f63d
00000230: 3329 4dbd 44ce b13f bcd8 e63d 7ae3 6fbf
00000240: 4fdc 933f 4b14 193c 07bb 853f e636 f8bd
00000250: 708b 70bc c1af 753f 0d20 933f 1877 abbf
00000260: 9250 7c3f 1c6c 993d 0a98 77bf e5b4 67bc
00000270: 1031 83bf ff59 843f babe c3bd a8c0 733f
00000280: 6022 853b 6a20 3d3e c820 90bf 1781 703d
00000290: de35 893f 736b 91bf ec2e 943f 3773 883f
000002a0: e8f4 a6bc a006 8cbf dc9e c7bf 4494 793f
000002b0: f8b6 1ebd 6dca a5bd e614 70bf 3fe7 723f
000002c0: 208d 8c3f 4b0a 7c3f bf7c 833f d8b5 c63c
000002d0: b8ac 9d3f d893 5ebd 6340 67bf 186c fabc
000002e0: 37ad 6c3f c3c2 7dbf 5896 d7bc c0df 69bd
000002f0: 251b d0be ec34 88bf a48b 77bd e81a 90bf
00000300: 8886 edbc dc62 973f d45d b13f 6027 c6bb
00000310: 5d2f 87bf 1acf 963d 1428 933d 06f9 26be
00000320: c682 8a3f 10c2 0f3d 08f7 fd3d 022b 95bd
00000330: ff30 acbd 19c8 b73f 9499 fcbd 56fa 87bf
00000340: 9697 983f f260 843b 41f9 993f f079 923d
00000350: fc04 a03d 7302 723f d322 8e3f 90b9 9fbf
00000360: 5ab0 813f fc8e bebd 26af 78bf 18b5 12bd
00000370: 8b11 81bf 2a9d 943f db92 df3b d3b1 793f
00000380: a255 a8bd 1c57 9bbc 6d28 95bf 059a cc3d
00000390: 4dc5 8a3f 938f 7abf 1922 8d3f d21f 863f
000003a0: a080 1cbd 484d 79bf 23e0 c0bf f0a1 883f
000003b0: 6c8a 763d c449 21be 62f9 8dbf bf20 663f
000003c0: be6f 983f 0832 793f c958 893f 10df 813c
000003d0: cab0 a63f 54ef dbbd 7329 84bf f8f7 b9bc
000003e0: 4261 7e3f 0702 98bf 9a12 b1bd 382a f1bc
000003f0: 7577 f4be 5948 6ebf 42c7 85bd 0e08 95bf
